current_model.pt (torch, 34447 bytes, 8 tensors)

weight f8 [32, 84]
00000000: 1dfd 98b2 0484 db3f 8f84 4144 11ed d63f
00000010: 51a5 7afa 7280 903f 77fc ee20 80fb e93f
00000020: f4ea 92af 8a1e be3f dc4c abea 5076 c0bf
00000030: c639 f285 c6ce d8bf b839 8973 c59d cabf
00000040: 7bd2 9da6 2a47 91bf 1167 20fb 0887 4abf
00000050: 77bd 6ab9 3235 cf3f 2446 cdf7 8c56 99bf
00000060: ad71 cca0 bd0d b63f 605f 2196 7e2c bdbf
00000070: 926c dba5 8562 c8bf 7d95 807c 5db3 adbf
00000080: 1b5b 7244 24b6 a73f c740 5295 7b17 943f
00000090: da74 93d7 c9c2 c03f 8ecb 7712 c06a 93bf
000000a0: aba1 3a98 674c e13f c651 95df 7768 c0bf
000000b0: e74e 26c0 26e8 d2bf 5239 2e63 7383 b43f
000000c0: de40 59a5 ef2e 9cbf ad81 df4b 75eb d93f
000000d0: f0d4 2bc3 9abb b6bf 35ba 9fe3 28ad b2bf
000000e0: 37fa 7f02 4dd3 b63f 28f2 2b4e ed66 c6bf
000000f0: 7c47 d928 221d bc3f 1214 efd6 6000 c8bf
00000100: fe51 cd46 b96f 823f ccfe 1222 d063 a6bf
00000110: 84b3 b89d b869 ccbf a797 d1d5 640a d23f
00000120: 1f3b 2321 061b ba3f 7358 0200 0000 0080
00000130: 1d43 4962 5fe3 d3bf bacc 0000 0000 0080
00000140: 4030 ac93 61cd bc3f c6ff 5dd3 f564 c73f
00000150: 9804 6641 7e8c c8bf 2392 2daf 3bc1 d93f
00000160: b64b 654a e546 793f b336 8620 4e98 acbf
00000170: 3230 d62c 27b8 d5bf 01ac 1254 30ce bebf
00000180: 976f 7fa0 1b92 b93f cbdc f8d3 27d5 bb3f
00000190: 92fc 77c7 aae4 b03f 214d cbb6 37a8 943f
000001a0: 34cb 3e88 db54 d0bf 453c 4032 910d cabf
000001b0: b40d d285 acba b33f 2b50 08a7 999e d9bf
000001c0: 299a 56f3 b823 a4bf 2260 20f4 1c8d b8bf
000001d0: 2d00 cdd1 9712 babf 82ba ba8b b6ad c4bf
000001e0: 33d4 9118 d815 9c3f cba3 0cb7 5ce1 c63f
000001f0: 2be5 0000 0000 0080 ec74 0200 0000 0000
00000200: dc53 0000 0000 0080 631c 0000 0000 0000
00000210: 6d90 0200 0000 0080 6579 0000 0000 0080
00000220: 596c 1339 0cd0 95bf 6c74 8382 e412 d23f
00000230: 21c8 2f04 34d2 79bf 46fe 5c6b aa87 9bbf
00000240: 5615 2227 10c9 9f3f 2f98 2b4d 03ec aabf
00000250: 2a4d 1e73 9e32 aabf fd02 5c6d d0bc a93f
00000260: fb5e 9594 e47c c4bf 2ccd a59f f925 ce3f
00000270: 840c b33c b9f7 d03f 3b41 fdda 680a dcbf
00000280: 2b7c bf98 e5ef aebf c1ab e35f fc48 d2bf
00000290: 44d5 b899 e171 c3bf b16f 63b1 5938 c3bf
000002a0: d22f b0d8 c313 b0bf 2247 7b23 0f96 d4bf
000002b0: 4560 aab7 9486 d33f e2f6 4f84 aff9 d73f
000002c0: 03b8 a18b 9e8b c63f 69ae c604 1be1 97bf
000002d0: 8b5a d4b9 5bdc abbf 10d6 378d 7000 c1bf
000002e0: 4097 cd7d 8131 b3bf 1148 02ce 561b 833f
000002f0: 07cb c86a 81b1 653f 18ac 9a53 3559 96bf
00000300: 55bc 3212 7375 adbf fe8e 436e 9ef4 c6bf
00000310: 9734 dd24 b189 b03f 59ac 9904 a35f bc3f
00000320: 439a 6a24 c91e afbf e222 8e0b 7838 bc3f
00000330: b777 2cad d285 bebf 60eb 327a 5b73 973f
00000340: 6637 d95b ba20 b5bf 41a0 5b3d 869e c23f
00000350: 3c39 793c b807 c2bf 1021 2f31 e952 c03f
00000360: bd23 5791 a372 9a3f 5939 0256 c03f babf
00000370: 36d4 8fb9 fd2e c4bf 1ed2 9fea a4c4 963f
00000380: 0f9e 3baf 335e 963f 2a91 132d 00c6 bf3f
00000390: f027 880d 80f9 d03f 06ee a78b bbf7 c5bf
000003a0: 8ce6 d663 929f cfbf eea7 806c 5473 bfbf
000003b0: 74cf d5af f3ca a6bf cdc5 55b6 df6e c7bf
000003c0: b9f3 9755 20a9 c03f 019b 0100 0000 0080
000003d0: c820 1161 0851 d7bf 3c60 0200 0000 0000
000003e0: c6b3 157c 973f bf3f 4f07 0ef3 4ddd b1bf
000003f0: 9ed5 e8c3 ba4a bb3f 6b9e 6c77 40b8 c23f
00000400: cd7a 5414 0118 c23f 397c 4d9e 8375 c3bf
00000410: 0db3 3e10 96eb 98bf 808c 5976 2775 f9be
00000420: 3b2a 9d91 e72c d4bf c624 6a62 1833 cdbf
00000430: 36c0 6c11 fa70 ca3f b7e4 75e4 380e aa3f
00000440: 1fc6 19b4 342e c6bf 559e d678 68a9 d4bf
00000450: c834 b920 2acb c1bf e129 1b02 1a16 dabf
00000460: eed4 be78 fc04 993f e32c 20c3 930d b33f
00000470: dae3 5808 c35b b03f af7b 1829 794c 973f
00000480: 0dad d56c 8211 9abf 3183 76e5 0e37 b5bf
00000490: 0c7c 0100 0000 0000 0ab3 0200 0000 0000
000004a0: 9b3e 0200 0000 0000 595f 0200 0000 0080
000004b0: 953d 0100 0000 0080 10f4 0000 0000 0080
000004c0: 838f 0bdc 3bc1 aebf 9565 ae85 622c 94bf
000004d0: d3a5 9c6e 53a7 a9bf ba9a 9917 d855 a3bf
000004e0: 0452 1e46 c505 ab3f f509 e81d 2c0d cd3f
000004f0: b112 3519 9b6f c7bf a112 3339 52d2 903f
00000500: 7f8a 570c 1bd0 d33f fa1d 3bb1 65f6 b23f
00000510: c034 80b3 1e3f 61bf 5684 b924 0138 cb3f
00000520: a085 b382 8bea a03f 5e68 55ac 347f bebf
00000530: 5942 b47f 5902 b53f 1256 ecd6 e734 b53f
00000540: af54 93f8 fdcf e93f 1a31 7bb4 7154 cabf
00000550: 8f78 445f 6610 c33f b4ce f831 408e d3bf
00000560: a7da 2ea4 3b7c b6bf 06d3 424c 1d81 93bf
00000570: b35b 57a7 032f c2bf 7441 7a21 fc55 c7bf
00000580: 9f8e 7e5b 15a3 803f e71d 7136 c01a 80bf
00000590: a59a 4c70 bdac c3bf cbd6 9258 11f7 a73f
000005a0: 8feb 9cc3 fb98 c4bf 3d87 025f 0cd1 c6bf
000005b0: 19ad 686a 38c7 cbbf e04c 4e4d 0ea5 d1bf
000005c0: ba21 33ed df5f c03f 82e5 912a bb36 c43f
000005d0: 3e37 a820 8701 ba3f 9535 6876 9e0d a83f
000005e0: 3768 2b75 4060 8ebf daa7 1750 12a2 cb3f
000005f0: fb9b 71eb 0de5 d1bf a999 0924 ecd8 ccbf
00000600: bab4 59ae 1222 b43f ab27 a5ac aa7f aebf
00000610: b893 95ad 5b0b b3bf 4a38 7f82 acb2 c93f
00000620: 01b6 a207 79e2 cebf 3454 9ed1 0957 cd3f
00000630: 5b6b 2456 2b37 de3f 164a d2be 71a7 c6bf
00000640: eeda 2a92 653c c6bf d69d 696b ed6c c8bf
00000650: e505 5ce6 eb9f c53f 76cf ba11 ec20 a9bf
00000660: 34d2 8fc2 8b8b dabf 10f7 0100 0000 0080
00000670: 7b71 162c e8a7 bd3f 4688 0100 0000 0000
00000680: ec66 ca17 92cc 97bf 0827 c7dc a8a8 a03f
00000690: f4b0 e962 dc2b b23f bd55 8f10 c013 843f
000006a0: 372f 909f e19f c3bf 1189 223c 2dc9 c4bf
000006b0: c642 8243 3df4 b9bf a202 f1ea c62b cebf
000006c0: d84c 65a5 7874 bb3f ea5b fdee 665a d6bf
000006d0: 8d69 e678 4f11 dfbf facb 210d 5f7f a63f
000006e0: 7dc4 52ed 5185 66bf 8828 5f58 60ab b23f
000006f0: 9ce5 45a6 b48f dc3f 860f dab6 914e ce3f
00000700: 2d7e c748 64a7 793f a2ae 4a7f aef2 b6bf
00000710: 1c8a 21d7 958f a53f cd4c 98ed ecaa c3bf
00000720: bee0 9bca d5ae ae3f eab0 3c03 bd85 b83f
00000730: 1028 0200 0000 0000 0429 0200 0000 0080
00000740: 4f8c 0000 0000 0080 e80a 0200 0000 0000
00000750: 7823 0000 0000 0000 cb6b 0100 0000 0080
00000760: e26c f620 e7fd 5abf 9548 287a bdf9 c0bf
00000770: 779f d22d dffd 98bf 2ba5 cb8e 39f9 a23f
00000780: fd5c 1db5 6e19 b13f 49ca 36cb 09f4 c63f
00000790: e375 bb4b 51ae b03f bfef 20c1 872d a7bf
000007a0: 2b27 a25a a552 ab3f 3348 802d 23f4 bc3f
000007b0: a28a 3aea 3455 bfbf c08e 134f 12b5 bb3f
000007c0: f547 c6cb 14fa bfbf 162f c4f7 32ac d03f
000007d0: d12c f8b5 e24f 7abf a1cd a884 3f1a c2bf
000007e0: b496 c74a 99fd e4bf accc 9c4e 4654 c63f
000007f0: d8c0 5da5 d3c9 e3bf 75d2 fa86 b13a bcbf
0.4299327606313044 0.3582194487153822 0.016114994562177746 0.8119507449372482 0.11765352999183759 -0.1286107202382486 -0.3876205738132764 -0.2079397977963262
-0.01687304155298584 -0.0008095544674262286 0.2438109784465998 -0.024744227051377035 0.08614716697451881 -0.11396018185894041 -0.19050665472500278 -0.05800907273104892
0.046311505656538375 0.01962082957157987 0.1309444716088482 -0.018961907508081625 0.540576741525958 -0.12818811814453407 -0.29541939510930465 0.08013077899361079
-0.027522797076302 0.40499622735481006 -0.0888001181118232 -0.07295470769143082 0.08916169463189126 -0.1750160819718911 0.10981954095157492 -0.18751154417819343
0.009002158616262964 -0.043730262908409395 -0.22197635365719404 0.28188439255461123 0.10197485264800975 -7.59453e-319 -0.31075272176990315 -2.5894e-319
0.11250886779106484 0.18276856251395496 -0.19178751176153663 0.4024190149996533 0.006171127001226509 -0.05584949633621985 -0.3393648088319906 -0.12033369114458027
0.0998856798973392 0.10872124600506365 0.06598918313828708 0.020172949344510308 -0.25517929368213577 -0.2035390372625178 0.07706716792204454 -0.4003051882912156
-0.039335040764218406 -0.09590321502798863 -0.10184620735253765 -0.16155130217289942 0.02742707872353751 0.17875250757177094 -2.89853e-319 7.95465e-319
-1.06066e-319 3.5904e-320 -8.30253e-319 -1.5354e-319 -0.02130145166743733 0.28240311379869953 -0.006303981007464572 -0.026884711077626265
0.031040432346818157 -0.05258188550014641 -0.05116744189504126 0.050268662786043784 -0.1600614285950924 0.2355339078454589 0.26511984756161433 -0.43813535104438345
-0.06042401780700176 -0.28570470203584014 -0.15191288000066028 -0.15015717660469144 -0.06280159034957869 -0.3216588827609589 0.30508916793906266 0.37461460038308136
0.17613584344820774 -0.023319646994123398 -0.05441557544161409 -0.13282591720023662 -0.07497414895405274 0.009329488908665725 0.0026481177976845935 -0.02182467768458815
-0.05753669354577854 -0.17934017547587894 0.06460101270677608 0.11083430158912345 -0.060781751342166256 0.1102366474352823 -0.11922947624085976 0.022900990804127885
-0.08253063909907396 0.14546277996055504 -0.14086058571633397 0.12753024007384584 0.02582793783747993 -0.10253526782819246 -0.15768405495296783 0.02223451311142998
0.021843726702085727 0.12411500072955009 0.26522828408690113 -0.17162269896640242 -0.24705724596951872 -0.12285354279507008 -0.044517150129563726 -0.18307110217169367
0.1301613252579992 -5.1984e-319 -0.36432084540548404 7.693e-319 0.12206408290303647 -0.0697830885310655 0.10660903246829043 0.14624791938080092
0.14135755055118296 -0.15202374677298439 -0.024336189977179724 -2.427829112717746e-05 -0.3152407571803086 -0.22812180333520454 0.20657277918644618 0.05088975704979631
-0.17328509134272083 -0.322839849477963 -0.1390125903875854 -0.40759897428202235 0.024433083409992777 0.0744259215718333 0.06390017465390888 0.022752659924772874
-0.025457418339482497 -0.08287137128946821 4.80686e-319 8.7403e-319 7.26766e-319 -7.6818e-319 -4.0168e-319 -3.0869e-319
-0.060068007098180075 -0.01970056477475664 -0.05010472035639748 -0.03776431358419559 0.05277840119302726 0.22696448765061886 -0.1830934403498268 0.01642731165044842
0.30957676129597894 0.07407222344328793 -0.002105293238861522 0.21264662068554924 0.03303943605875337 -0.11912850577701437 0.08206710212494651 0.08283852574489739
0.806639657496495 -0.20570203125533554 0.14893798495990437 -0.30555729751652483 -0.08783314474463087 -0.019047220019916565 -0.14205976172408227 -0.18231155047079606
0.008123556952177423 -0.007863523160394471 -0.1537091062866313 0.046806852400022324 -0.16091868449606436 -0.1782546485820208 -0.21701722331759113 -0.2756992106380505
0.12792586404817802 0.15792026117905428 0.10158581301967914 0.04697890468024039 -0.014832023215991181 0.2158835307193943 -0.2796053694968916 -0.22536994704860305
0.07864491230585005 -0.05956776959881379 -0.07439206111810293 0.2007651936714317 -0.24128640053588415 0.22921869979168863 0.47211726581888563 -0.176984995054753
-0.17371816289024572 -0.19082420105699666 0.16894291637440442 -0.0490793010370955 -0.41476720810104273 -6.36278e-319 0.11584330631598576 4.9615e-319
-0.023241312696518898 0.03253677077334599 0.0709817639814821 0.009803295617454627 -0.15331669131443856 -0.16238942562365158 -0.10138304613270596 -0.23571096870184244
0.10724596059781122 -0.34926770533405593 -0.48543154532094307 0.04394051585486376 -0.0027491188180524526 0.07292749555122857 0.44627109754181915 0.23677274158773914
0.006263152823947443 -0.08964052779873069 0.042111094008550704 -0.15365373231234117 0.05992763612988615 0.09579068497686519 6.98253e-319 -6.9946e-319
-1.77463e-319 6.61376e-319 4.486e-320 -4.6013e-319 -0.0016474492184446678 -0.13262146439280245 -0.0244059440343842 0.03705768459424016
0.06679431840654 0.17932245657501003 0.06515987490589441 -0.04526924355056349 0.05336491328587408 0.11310024128786793 -0.12239390104745465 0.10823168211532685
-0.12490968680347676 0.260510198554344 -0.006423841084607322 -0.14142602899083292 -0.6559568844356449 0.1744468578195656 -0.6183870534714755 -0.11027059121517786

bias f8 [32]
00000000: 1812 d4d4 9118 a63f 53e8 1622 bfbc b93f
00000010: 86bb d581 df8e 9e3f 3b42 099c 9680 b2bf
00000020: 2017 59af 9bc3 873f 3a75 e1db 2add babf
00000030: 0010 5730 4eea cc3f a1ff 9da6 ed61 bdbf
00000040: 3e80 868c ed00 b33f d6c8 c369 26f2 b63f
00000050: 27ca 2936 e09c c5bf bfd9 7897 fdce a4bf
00000060: c121 b9af 1cce b7bf 3f16 98cb d8b6 b03f
00000070: d5f0 166b 0f5c a1bf 0060 b511 b4c2 c0bf
00000080: af4b a8b4 e3ef 6c3f a0c7 63ac 8fc2 b8bf
00000090: 5cfd 63c9 b92e d2bf 5735 b815 1747 acbf
000000a0: 52c4 4cd5 b6a7 533f 4bac dfbd 58fe d13f
000000b0: 8144 0b41 5223 c53f 22e6 2280 1adc ab3f
000000c0: fb61 42b8 4092 c1bf 9de3 6986 a498 b2bf
000000d0: 5230 58bd 44c2 adbf 2b05 7299 9884 953f
000000e0: ae6d b685 c7b0 a6bf 573f 549c 68d0 c43f
000000f0: 4072 6d84 6022 c3bf d18c 9284 be15 cc3f
0.04315620158198302 0.10053629476797825 0.029841892528050383 -0.07227460202671747 0.011603561676689689 -0.1049372469728568 0.22590043411594252 -0.11477551763345996
0.07423290901942978 0.08963241655490903 -0.16884997029008383 -0.04064171289467166 -0.09298877039066779 0.06529002161558937 -0.033905488798582496 -0.13094187607453023
0.0035323569657150426 -0.09671876867994778 -0.28410191218423164 -0.05522987499362369 0.0011996541481489498 0.28114908735614524 0.16514042068459747 0.05441363157428848
-0.1372757816032076 -0.072641642394855 -0.05812277613958429 0.021013626447261274 -0.0443174696658518 0.16261012681251927 -0.14948660341441844 0.2194135806395026

weight f8 [8, 32]
00000000: ddf2 d9c0 6efe c33f eb00 8799 e601 e03f
00000010: a0f2 bdef b0d1 c7bf ab0a 3208 80a8 da3f
00000020: 800d cfe1 0c0e e0bf 8041 81e9 0cdb ccbf
00000030: 6737 8b61 f0a2 d0bf 0dbf 31f0 fddd d9bf
00000040: d0b4 eaf5 d1c0 b53f 78d5 57f2 7801 b83f
00000050: c65e f19c 2136 da3f e239 90b7 1862 debf
00000060: c8a4 46d2 f088 d5bf 12af 355c 327d b3bf
00000070: 4946 3a22 efab b93f a5e4 ef7c c63a 8d3f
00000080: 14d8 7971 898f d2bf 1ff4 4d2c b194 c3bf
00000090: 6c68 b3a4 58d0 b13f 7237 7f48 d4f5 b73f
000000a0: e6c7 632d bf79 be3f 78af 5613 dcaa de3f
000000b0: 93a5 e72c ed8a d13f cbfa 20dc 8f4f d53f
000000c0: f8f5 3ff7 5794 aa3f 6c65 cd65 3dd0 cabf
000000d0: 2ec6 5b85 292b d6bf 5634 900e c0ec ce3f
000000e0: b5fd b798 8d8c b0bf e480 8e64 ba25 b2bf
000000f0: f5a0 9f7e 8f1c c4bf 4772 93aa 6a55 8cbf
00000100: 3c05 1b8c 9aab bc3f b482 253d 08c9 e63f
00000110: 3e6c 9da7 0589 f7bf 6a27 0cdc 592b fd3f
00000120: e8a3 5008 e068 fc3f f6f7 d134 e0c1 f5bf
00000130: e067 5d81 a7b3 f6bf afa0 6f3f 4cf3 01c0
00000140: 6db7 5388 6ee9 abbf d381 a1eb 802b f7bf
00000150: b4f7 9eed 94f9 e1bf be84 dc23 13fa d4bf
00000160: 637b 1a2b 4dc7 f53f 7b95 b8c5 3c75 f33f
00000170: 1e6e ae2c 2a69 d13f 736f 3ed6 55bc d03f
00000180: 0096 7d23 445a e83f 8831 e915 578a a83f
00000190: 2557 1e08 2236 d1bf 0b59 cb69 77a0 06c0
000001a0: 5c7c 1a8b 06dc fa3f 5573 7b3b d35f f9bf
000001b0: b893 9fc0 f99a d8bf aa9b 598f 94b1 ecbf
000001c0: 8796 d649 051c df3f d4be c8d1 d734 9e3f
000001d0: 8877 6039 9e1a e03f d813 a307 908b e7bf
000001e0: 9d1c 7555 0a0c e13f b6e2 a4bf a1b7 e6bf
000001f0: 0d82 42b0 c294 e5bf f7d2 5654 d18a f5bf
00000200: 244e 69a1 a94c c2bf fe31 0268 5205 bfbf
00000210: 4178 c6e6 7169 dabf 1c5f c5c7 35d9 d93f
00000220: a34f 11c2 d323 b23f 2a1a c1de c299 d0bf
00000230: e3ac 8b8e a83a 8f3f 177a d086 4373 c13f
00000240: 1020 e248 4a06 c4bf 31f5 4fea 9388 d13f
00000250: 056b 93a6 3b7f d3bf f2d5 4d8e 451a bdbf
00000260: cf1b cd8d 679c bc3f 8096 03dd cf83 d4bf
00000270: 6f00 b73c 6900 d9bf b99c d485 de34 bebf
00000280: 5189 1550 26bf dabf 9d30 9241 58be b73f
00000290: 0e71 c800 bd97 c93f 3534 1a08 a00c dbbf
000002a0: eae5 0a39 c23e c13f 412e a21e 5700 ba3f
000002b0: 7f93 e3a1 c8c0 d73f cb4d f7ab 1d4f c53f
000002c0: efe6 1bd0 5932 99bf 9445 cf08 82e1 c7bf
000002d0: c4f5 1a8a 6bfc b33f 0814 36c6 a667 b33f
000002e0: f639 a6db f5dd d2bf 6267 f9c3 65ef d43f
000002f0: f31f 8db9 e304 e1bf 174c 33a9 1cdb d7bf
00000300: 2681 4045 47f0 e4bf d8b9 2427 52eb cd3f
00000310: 0c77 c643 e499 c63f fc77 7100 8136 d63f
00000320: 2226 d45e e53b d1bf 3395 a07e ee99 bebf
00000330: 8bb7 581a 982e ca3f 14a6 cc0d 2a73 be3f
00000340: 9471 e648 0142 993f 28a7 e4a7 a0b9 e6bf
00000350: 685c 19b6 f789 a33f 8545 a11f 1c07 8fbf
00000360: 8a1e 164f 1799 d6bf 5808 c70d e7ff c3bf
00000370: 0e81 5ef8 ae5a c1bf 9218 ed61 afc6 e8bf
00000380: 5d47 e5b3 fdca c6bf 4a21 4f6f dbc6 b7bf
00000390: 2110 67cd 9052 d6bf e074 5eb4 0b67 c1bf
000003a0: d060 8a02 e48b c43f 31e1 2bd5 1600 d03f
000003b0: f997 1e3a e7f0 dc3f e9c4 7502 a9c2 c83f
000003c0: f34d 463d d04e 7c3f 89fd 2e35 e40c e5bf
000003d0: 5dae eedd 653c 833f f260 562f 0562 d33f
000003e0: b9f2 7454 478f d6bf 29de 4eaf 4003 d73f
000003f0: bc14 6ca5 bfba d83f 8b51 68ad 2a68 dabf
00000400: b596 a200 93d7 d83f 5355 01e7 2226 e5bf
00000410: af44 6db4 f763 d53f add2 9c22 0142 a03f
00000420: e1ca c074 9d76 dfbf 5670 a834 b8aa d4bf
00000430: c231 9be1 e809 d8bf 33cd 5a3c 3e9f a5bf
00000440: 841c ffd4 dc9b d9bf c7a5 2c29 215a a2bf
00000450: 0d0e 7844 b6ae c43f ab0d a3be f368 d4bf
00000460: 9168 ca67 5bdf c83f 5af4 17b6 880c dd3f
00000470: d4d9 7a00 8332 e4bf 8fbb 1933 fdb7 e0bf
00000480: 15c1 8799 3e6b c13f 4bb8 2e30 df48 d0bf
00000490: 8c0c b104 eacf cbbf d98e dd36 73b5 a0bf
000004a0: 09ac 2541 fb60 e73f 1eba cdf2 e29b e53f
000004b0: e2f1 c272 5454 b73f 149a 9e77 5951 8a3f
000004c0: dbb1 fc43 26a6 ccbf 6ae9 7806 5ffb dd3f
000004d0: a720 7785 0961 cd3f cc0b 1f97 950f aebf
000004e0: d23e d548 4484 d0bf 105b 61a7 d35b d0bf
000004f0: 0818 ea1a 14c4 d83f c56b 258b fd7d e53f
00000500: d6d1 45d0 35fa d1bf fa26 41d0 45e0 cb3f
00000510: 7ab6 d835 94e9 c73f d777 0ed4 2aa5 ba3f
00000520: 852d 0f0c e30a 843f 22b1 c302 cd65 8e3f
00000530: 7f6e 88a1 bbe2 d0bf 8ac7 caf3 54de cfbf
00000540: 174c 6ab7 8eb4 cd3f f119 d183 fc02 c4bf
00000550: aae0 2352 b537 8d3f 5ef4 9002 fa1d b0bf
00000560: 0b20 5c5a fc5c e03f 3000 e7f9 7dca db3f
00000570: 7b18 d189 8a55 d7bf 8dc0 b8f4 3650 a2bf
00000580: f83a 657f 6306 c63f 4542 ca5c 2438 c23f
00000590: f37b cb2c e6f9 ce3f 1ae1 baeb fd0c d53f
000005a0: 98d2 4b74 4d50 d93f 7c21 d40c 677b de3f
000005b0: 7e12 69c9 ee20 bf3f e100 616c dd15 d73f
000005c0: fcf5 f4a7 e2c5 d8bf 8d17 d342 194e b6bf
000005d0: 6ea5 61c9 c244 e0bf ed00 6d7a f000 cb3f
000005e0: a22c ddcb 1f8f b4bf 5102 4ac8 c2ae e33f
000005f0: 47ce bcb5 56bd d23f 1f38 13d6 314c a23f
00000600: ad25 1633 e61d dd3f 1321 a9ed 3151 dc3f
00000610: ff57 be9a fa57 c5bf 79bb 9166 b72a 82bf
00000620: f1c3 479d 3aba d1bf 3a69 d3c8 a118 d83f
00000630: 603b 7919 d47d e6bf e11b 0f09 cc02 8a3f
00000640: b8a9 0b24 a5ff c9bf ffd8 d310 2ee5 b53f
00000650: 75c7 5f54 ec88 d73f c01c 0897 7f05 c53f
00000660: bbc1 69bd d397 e1bf 2d09 e177 fb89 d73f
00000670: 647a 8ab2 ff22 b1bf bbda 802e 1cce dbbf
00000680: ad40 fbfc ca9b c0bf 4b0b dbc9 9dc7 cfbf
00000690: 2056 99d7 3064 dcbf 2302 f7b1 8b8e 99bf
000006a0: 5169 67de d5d0 ce3f 7d2d abaa bdfc 7e3f
000006b0: 824f ab5b bdd6 cb3f b877 ed48 c7ed cbbf
000006c0: bf81 b83d b0e4 e7bf 32fc e05b 773f d5bf
000006d0: a462 9968 a0cf cdbf 0022 d24c a9f6 e03f
000006e0: 48e8 0d51 86af e5bf cbf6 76dd 25e7 a3bf
000006f0: e804 0ab7 19b6 d7bf feb5 20e4 5400 cfbf
00000700: aac9 ad9d cc28 c9bf 1e8d acd9 f4cb 8fbf
00000710: aef2 5ff2 a03e c8bf afd2 01f9 12d9 d43f
00000720: f269 d505 4452 d2bf a6d2 9759 cefc d73f
00000730: f048 2511 3178 cc3f fe43 fdc3 e2cc ddbf
00000740: 99c5 739f 35dd d4bf 7aba ff4b 7edd 963f
00000750: cf7d 3521 95bc cd3f ea6a c663 00cb d4bf
00000760: 8bb7 f068 3db9 c9bf 08fb 8c8a ccb3 d73f
00000770: 665b bc89 dab3 d6bf 2ace 3ada d2f9 d3bf
00000780: a56d 83b1 0da4 a23f 8699 8dad be2c c2bf
00000790: 1518 d55e 4b55 b6bf 4467 606e 446c d3bf
000007a0: 1732 baef f259 d5bf 51fd b95d 2b5c dcbf
000007b0: 90a0 cf2f 2578 dc3f 817c 38c3 3fd0 d73f
000007c0: 7413 1fbc af3c d73f 8be6 35df b956 79bf
000007d0: a586 fa7a 03f9 d5bf cb16 db3c 8165 e63f
000007e0: 6e69 7e23 ac4b b3bf 3e92 d033 dcf8 e33f
000007f0: a1b0 df35 8fb0 bdbf 7cbd a32a 6c41 abbf
0.1562021676690141 0.5002320288258749 -0.18608676630164656 0.41653443146075614 -0.5017151270225639 -0.2254348888550446 -0.2599450066162405 -0.40417431313015656
0.08497345212772989 0.09377246777133574 0.4095539124150317 -0.4747373383151211 -0.33648319754372524 -0.07612910033429568 0.1002797564090311 0.014272261321808985
-0.29001079637180394 -0.1529752222376439 0.06958536168113633 0.09359480638451403 0.11904520853184372 0.479178446660391 0.2741043985866664 0.33298107621150724
0.05191302197634323 -0.2094799754220661 -0.34638441108026796 0.24160004340265812 -0.06464467028126004 -0.07088818507191125 -0.15712159807959095 -0.013834794359746229
0.11199346466584797 0.712040061404045 -1.4709526584108654 1.8230837436298892 1.7756042790226676 -1.3598329604424158 -1.418860917407521 -2.243797774881464
-0.054515318051797525 -1.4481209949809581 -0.5617165223154559 -0.32776335241403476 1.3611575778702096 1.2161224101522226 0.2720437465993387 0.2614950744843931
0.761018819158096 0.047930451798126106 -0.2689290122301478 -2.828352762716468 1.6787171777466687 -1.5858948062443308 -0.38445895968316846 -0.8966772842221549
0.48608524523511004 0.029498455218514533 0.5032492752686588 -0.7357864522133424 0.53271977129852 -0.7099159949348948 -0.6744092409681471 -1.3463910383699706
-0.14296455747045045 -0.12117495574256762 -0.41268584763190935 0.40388245114216814 0.07085917938212431 -0.259384839566709 0.01524860081686658 0.1363300712846047
-0.15644196089510887 0.2739610470014951 -0.3046406866757681 -0.11368212436885708 0.11176154338782783 -0.3205451639499657 -0.3906500904959164 -0.11799422042223541
-0.41791684933391077 0.09274818039756601 0.19994318521720128 -0.4226455763935662 0.13472774300843976 0.10156769273651724 0.37114158448667206 0.16647692581919524
-0.024606135680165172 -0.1865694563880821 0.07807037469588979 0.07580034579412154 -0.2947973866475019 0.3271116651354672 -0.5318468689010828 -0.3727485325190982
-0.6543308594300796 0.2337439242487125 0.1765714007314546 0.3470766548470008 -0.2692807603894797 -0.11953631011472936 0.2045469406743304 0.11894476735019338
0.024665851664040853 -0.7101596144832216 0.038161984423532413 -0.0151502797272396 -0.35309393618852225 -0.15624702618339614 -0.13557994010353308 -0.7742535507793653
-0.17806979450193242 -0.0928780695677506 -0.34878940638395944 -0.13595720583990722 0.16051912426042358 0.2500054437400819 0.4522035663197808 0.19344055767172755
0.006911099848724944 -0.6578236616841632 0.00939254363569047 0.30285768149180037 -0.3524950337194173 0.3595735275261825 0.3863982310725296 -0.41260783132863627
0.38815760671637217 -0.6609053146191094 0.33422653789336726 0.03175357387082065 -0.4916146888892126 -0.3229198946226054 -0.37560483962877467 -0.042230553500667865
-0.400138099674628 -0.03584388377778285 0.16158178656779434 -0.31890576950919564 0.19431631629851556 0.45389001638961235 -0.6311659821865825 -0.5224596021706577
0.1360853433284396 -0.2544477434665892 -0.2172825358303253 -0.03263435406441113 0.7305885574727436 0.6752791158922411 0.09113052179140582 0.012850474322317708
-0.22382047958070825 0.46846748001157457 0.22952384011137392 -0.058712649056836236 -0.2580729209193865 -0.2556046614239884 0.3869676840625975 0.6716296880434746
-0.2808966192162904 0.21778175991703802 0.18681576375222503 0.1040827529636482 0.00978639011909511 0.014842607161391689 -0.26383868002606187 -0.24897252944861875
0.23207267719098532 -0.15634113727919854 0.014266411370485638 -0.06295740664150304 0.5113508000222294 0.43423413662458454 -0.3645960183970442 -0.03576823937726301
0.17206996651153594 0.142338319118169 0.24200131594895388 0.3289179613161807 0.3955262790398506 0.4762818932799957 0.12159626404997856 0.36070952972296594
-0.3870779648021594 -0.08712919122180392 -0.5083936627608361 0.21096616723844566 -0.0803089020457031 0.615083113851208 0.29280631778531013 0.03573756921979076
0.4549499033824656 0.4424557515053646 -0.16674740367733418 -0.008870537583985915 -0.2769915138188131 0.37650341617485916 -0.7028599259882462 0.012700647379359555
-0.20311416873967203 0.08552825842693677 0.3677321266142067 0.16423029780000853 -0.5497835826372958 0.3677967711156665 -0.06694028958234238 -0.4344549612173229
-0.12975442268953455 -0.24827930790169214 -0.4436151605089851 -0.024957831132043872 0.24074815139358433 0.007565251241156698 0.21749083496126437 -0.21819392262380943
-0.7466660695536617 -0.33199867222350854 -0.23289876086598327 0.5301100254446851 -0.6776763518421456 -0.0388728936045318 -0.3704895293704582 -0.24219761981059656
-0.19655759524500854 -0.0155257347992746 -0.189411276194638 0.3257491523466269 -0.28627110070888684 0.37480505704233236 0.22241795861425073 -0.46563023700315387
-0.32600155421740734 0.02232930506573403 0.2323175823357659 -0.32489022964152403 -0.20096557258642309 0.3703490593942864 -0.35472739649542573 -0.31212302505011513
0.036407878798594674 -0.1419905040194857 -0.08723898949855909 -0.30348311213457557 -0.3336150494658638 -0.44312557366352673 0.4448330847649311 0.37208551468388157
0.3630790078280406 -0.006186224043057141 -0.3433235836947495 0.6998907269086997 -0.07537341944263229 0.6241284381872629 -0.11597533288267182 -0.05323350925925305

bias f8 [8]
00000000: b681 337d 9cbc bd3f e29d 2218 01eb dbbf
00000010: e1c0 5ed5 a945 c73f 3918 7100 ef86 d13f
00000020: 62c5 a7bd 85cf c73f ebd4 b0d0 b9b7 c43f
00000030: d688 2de9 c92f b63f aa35 29dc 6d4d aabf
0.11615922981901047 -0.4362185226150058 0.18181345861876877 0.2738606933893411 0.18602058182254227 0.16185686769464466 0.08666669791049073 -0.05137198746215728

weight f8 [8, 8]
00000000: ae1e baa4 95e1 e0bf c054 a056 6c47 9ebf
00000010: 984a 31d5 157e cabf b3ae 77b2 5f40 c63f
00000020: ed36 28d3 4ccc 903f 9111 8d04 4471 ef3f
00000030: 154a 6839 7af2 c1bf c215 42be 2ab4 ad3f
00000040: 5797 d955 c9af dcbf 8825 c04e 1627 f43f
00000050: 78e8 7071 9dcc c83f e1bf 66fc e58d dc3f
00000060: def0 45d2 9cff cebf 4f32 e073 ce1c bd3f
00000070: 96dc 1521 3122 dc3f a565 f426 7787 683f
00000080: 4083 5473 388a bb3f 8c03 1651 edca fe3f
00000090: c954 9db4 7b81 d63f f122 1af9 9506 e43f
000000a0: 1e60 f97e 64f6 d03f 3c58 073b 01a7 e4bf
000000b0: 67f0 102a ccc1 e3bf 1363 65b6 db68 d93f
000000c0: cf57 9726 ee1b e5bf 8905 4ed7 eae3 f8bf
000000d0: d846 1084 3140 dd3f 9159 1b95 0a05 d1bf
000000e0: 93e5 c99a d9ed c8bf 1718 58cd 718f d4bf
000000f0: e2b2 b7d8 86cb 9a3f 3234 5909 604d c63f
00000100: 6e9c ce99 3c27 d33f 1def 35aa 8c2a f23f
00000110: 5bf3 8668 2181 dd3f 695d 92f5 c5b9 d5bf
00000120: 725e 1345 5afb d5bf 1c01 8cd1 8e5e db3f
00000130: 2b50 8d8d 2cc6 d0bf 3a3a 0a0e d05f b73f
00000140: 9616 5c28 751b dbbf 941a ab83 ee49 0540
00000150: 45e8 2e4e e676 d03f 00db 81cd 4f3f e0bf
00000160: 25de ead3 30ae dd3f 5abc 8a78 9288 a4bf
00000170: 8a75 c5dc 7e78 df3f ca07 5820 aabc 9cbf
00000180: 6e6b f72b b77d e33f b8ae 50dc 7ea5 debf
00000190: 2b62 e473 2739 c03f f50a 1934 2c3d c93f
000001a0: 0fd4 6239 7e82 d03f 7755 f48e 4b98 babf
000001b0: d80b 589c 933d e5bf edc4 476d efc5 0240
000001c0: e031 2833 1782 c83f c4ec 77a3 7870 b8bf
000001d0: 6c5c 7d5f f133 e43f 74c8 ccca 8590 c03f
000001e0: 6da6 5ffd bc5e cebf fc2e 6fd0 6f12 b5bf
000001f0: 0c4d 1ce9 6f3f b6bf 3eb7 5652 e647 e4bf
-0.5275371758770768 -0.02956933287358221 -0.20697281751434526 0.17383953298791752 0.016404343021398416 0.9825763787162477 -0.14021232417196985 0.058015189862128405
-0.4482291544321603 1.2595427585787053 0.19374435462106354 0.44616078995295366 -0.242175676987137 0.1137208016300033 0.4395869086360532 0.0029942824545627516
0.10757782760312029 1.9245427291318462 0.35165302885191047 0.6258039346003824 0.2650386085492772 -0.6453863289741615 -0.6174069234471177 0.3970250397883756
-0.6596594575628333 -1.5556438837378173 0.45704305550417024 -0.2659326988336029 -0.19475860651054386 -0.32125515988480075 0.02616701791514487 0.1742363019606344
0.29926981945249664 1.1353880547384911 0.46100650031785556 -0.33946370107283613 -0.34346634622259054 0.4276463552814833 -0.26209558318555776 0.0913057359959816
-0.4235508817804229 2.661099461230444 0.25725705752450195 -0.5077284826100765 0.463756758642804 -0.04010446282824694 0.49172946510028537 -0.028063448166001405
0.6090961321564075 -0.4788510467067044 0.12674420508189263 0.19717934173430476 0.257964664498389 -0.10388633957002989 -0.66376667533802 2.346648076775287
0.19147005079174928 -0.09546617499283899 0.6313406815560376 0.12941048052158843 -0.23726618167647776 -0.08231257284858978 -0.08690547410178712 -0.6337768181017294

bias f8 [8]
00000000: da77 3d3e f9f6 c73f 4074 2b16 069b e7bf
00000010: aee2 2b1b 4341 cdbf b30b 37d8 84f0 e13f
00000020: be3d 889a d453 d8bf e3b9 afb0 3299 eabf
00000030: c37b 480a e731 d23f 9fde df94 d7c6 d43f
0.1872245363146579 -0.7376738007548127 -0.22855414225320686 0.5606102202367452 -0.38011660662683855 -0.8312009287745322 0.28429580692494144 0.3246363595821808

weight f8 [84, 8]
00000000: eec0 0b32 635a a2bf b776 6943 5d08 97bf
00000010: 7f24 014a 29bb d23f fa37 2e47 8df3 ccbf
00000020: 8289 aa44 855a f8bf fa32 12a1 e3af e13f
00000030: d83a 57d9 8fc8 e03f 7df8 c8b6 439e e33f
00000040: ff32 44e7 3e39 42bf cab6 d1cf c211 65bf
00000050: 523c 45aa d17c 5ebf bc1f c6e9 de95 0e3f
00000060: 125e f6ef ed4b 55bf 792a 1eba 3d0d e4be
00000070: 57fe afa6 c677 f83f dbfa b022 9540 633f
00000080: 9428 1055 15e1 d73f cb4c 4b76 8737 e7bf
00000090: c758 ac7a db15 c5bf 0b5f dc36 6997 b83f
000000a0: 6be2 83ce 53c6 d93f 3a3e c31d 93b8 e23f
000000b0: fd22 5f6a 8a45 e5bf 38ff ffeb fdde d83f
000000c0: 932e c87d e089 bebf 9f5b 4ecd 03d8 a8bf
000000d0: e5ff a963 f099 e4bf e74a afd8 0bf9 ae3f
000000e0: 2422 9275 b5e0 d83f 87f8 e719 0e74 9a3f
000000f0: b045 402f 0bec b2bf 9cb2 d1e8 f324 b7bf
00000100: 6462 7825 b588 fcbf 4321 f656 ee1c ee3f
00000110: 4b66 b627 5cd8 05c0 5a8c 55a5 5c5c c9bf
00000120: 5114 3afb 3340 fe3f ec59 d19a 0d75 f73f
00000130: 2234 0996 4d90 d0bf 870a 7e4a 3f67 ae3f
00000140: 494a dd91 8e99 f53f 031e 9e89 8a09 723f
00000150: c976 d46c 9b72 d4bf 9a39 a0eb 0ce7 03c0
00000160: d8a1 a2f7 93bb d43f c133 568f d97c febf
00000170: b828 b6ff 5295 acbf a9e0 9d70 c8c9 f43f
00000180: 03bd f7bd 8767 e93f 7736 c4f6 3252 f6bf
00000190: 232f 4690 5bab ec3f b515 2fc4 d1e0 03c0
000001a0: d543 0b6e 668c fd3f 448b 819c a82d eebf
000001b0: 406f 103d d7c4 e5bf 0bb9 0414 71f4 d83f
000001c0: 5597 7558 ec6b e33f 0db3 dfab 5938 ed3f
000001d0: e218 1d4c 7850 c43f 40a5 93eb 27b0 f03f
000001e0: 25d1 a640 bc28 aa3f fcf5 67e1 5c25 e13f
000001f0: 914e 4d4b 9b49 d13f 87a4 a3b7 bfb7 e13f
00000200: b439 96e3 1834 91bf 6f26 5e5a 9b26 583f
00000210: ec14 7fe1 1834 a03f 84c3 2c91 3826 70bf
00000220: 877d f4f4 ff7a 9d3f 882e 7309 6093 a63f
00000230: 977a b629 5ed6 563f 5ad8 9c89 c560 703f
00000240: fc6a 6cf4 9fb8 8dbf 9efa 9590 8ac9 79bf
00000250: e2f9 4e75 3b09 923f 83d2 e070 3491 853f
00000260: e535 702b 2c6c 963f 6223 cc3f 04ea 9a3f
00000270: f024 08d9 3e52 92bf 9ec8 05eb 56cf 7ebf
00000280: ceac f314 38ce 8bbf 070f 4180 07a0 8cbf
00000290: 9169 d130 f3ec a33f 7950 80f0 d5fb 7abf
000002a0: 8225 585c 44c3 b83f 1e4a 5717 aff0 b03f
000002b0: 8d02 5ebe fe7b a5bf 70cf 00c5 6ad7 a3bf
000002c0: aed7 d6b6 6f3e 91bf c682 be22 1bf2 5d3f
000002d0: 5620 f2a1 9255 9f3f 7065 d7d2 175c 70bf
000002e0: 45f4 6453 2925 9c3f acac 2db3 8602 a63f
000002f0: fed7 a7f8 c1ca 6a3f 3959 ea5d e1fb 713f
00000300: aa11 e349 f1e7 9c3f 6fa4 f962 5983 cebf
00000310: 221c fe05 4463 d93f 5e1e 1fae 701f b0bf
00000320: 1249 ad50 6415 ec3f 5b49 d432 c44a dd3f
00000330: 2d83 eb6d 692b dabf 4676 e706 8899 dcbf
00000340: 7f10 e83c 3206 653f c3f7 db37 9a67 d7bf
00000350: 4189 8c30 e823 d03f c443 96dd 221c b9bf
00000360: 4c36 815c f461 e23f fcbf a01f 00f5 ce3f
00000370: 3088 d782 31fd e0bf 08fd 6335 76e3 cdbf
00000380: 521e 1ae2 bbe7 a13f 6d72 5b7c 99be d5bf
00000390: a3c1 b4b4 24ab e23f 6499 3e76 25c3 bdbf
000003a0: d904 9d33 397b f13f f929 b137 dd7d e13f
000003b0: aa86 a0bc 1dbd e3bf f153 a7ab aa8a e1bf
000003c0: 46d2 db62 9074 a53f 678a 5fe1 b40b d8bf
000003d0: deb1 c8cd 4233 e13f 9530 b9bd b529 b9bf
000003e0: 8fc5 f5fe 843b f53f 44a3 cfba 3717 e53f
000003f0: 72c4 2c57 5150 e0bf 02da 3102 d13b e5bf
00000400: e776 d9d0 6eb6 dc3f ba99 7db5 e9f2 cd3f
00000410: 4e1f 9ce7 c236 dc3f 03bc f096 689b cabf
00000420: 800f 537f 0793 c03f 3e90 d8a6 dcd0 e33f
00000430: 99cd dfcc c446 b33f 9096 dfba b429 c5bf
00000440: 36b7 44fb 4718 6a3f 40be 0490 7e99 c0bf
00000450: 26ba 9325 f375 c73f 054a 036d 2095 e2bf
00000460: e3b8 288f 8847 d4bf 7702 6079 e4b2 d43f
00000470: 2706 1db5 31d5 e4bf 05d5 f776 1d59 eebf
00000480: bea1 f9f1 4ba1 e63f 55d3 6394 174d d83f
00000490: 5052 2621 7211 e63f 7bf9 8a1e e481 d9bf
000004a0: 8bd5 19e7 56e3 b33f 381b 4616 5cb2 ed3f
000004b0: 6af4 f148 35e4 b63f 562f c383 c2d0 d1bf
000004c0: 1501 b1dd b36a e03f 6c3a 4765 62a9 cb3f
000004d0: a073 6161 148d bc3f 186f e656 b3ca cbbf
000004e0: 7593 c9ea c44c c23f 853f a7f1 b3bb e33f
000004f0: 09db 098c 501d cd3f b238 e168 c3ba d7bf
00000500: 9381 a95d 2eb5 d4bf a2a2 dc36 c46b cabf
00000510: 0c33 0e06 f436 ca3f 101b d66e 9479 d6bf
00000520: 992a ffb7 5166 e13f 7ee9 78e6 2161 d53f
00000530: c967 e9ad 9784 babf 016f 6261 653b de3f
00000540: 3b45 073f 45ed c3bf 9736 6dbc dbeb e0bf
00000550: 3b0d 5157 6cd5 753f f3a3 98a5 c061 e6bf
00000560: 85da 43dc 81c4 afbf da83 7aec 4595 c03f
00000570: 9180 11de d256 ea3f 0f74 a84c 4140 f33f
00000580: ef53 5d02 2b17 953f 491c 152e 6cd9 cf3f
00000590: b71e f03d 4ece d5bf bf82 5367 0f5b d03f
000005a0: 940d fd90 c30d d1bf aea1 debf 7801 c6bf
000005b0: 26bb f9bc c14d ac3f d1fb bd16 b1ec cc3f
000005c0: 9cde 6a1c b6cb d33f f1c0 d55f c927 d73f
000005d0: 7f24 b7cf 8947 d5bf 8468 b500 e803 cb3f
000005e0: b916 c2be 0a9d c33f 56a6 14cf dbc0 cfbf
000005f0: 4ffc 8a44 2af1 c6bf afd3 790d c42c aa3f
00000600: cce0 8cb1 e233 eb3f 81f1 c849 d07b e93f
00000610: 43a7 f5df 4daa e1bf 701e 96d7 f4f2 c73f
00000620: 2adb 4494 0b4c b1bf c84b e041 6a9f e0bf
00000630: dc0c dad0 f41c d73f a20d a060 d3b2 e43f
00000640: 1941 77ff ddb3 cebf 113e fe38 d9a7 cf3f
00000650: 4b60 17cc ab16 d1bf 1c6d 532f fa1f cb3f
00000660: c654 7ff6 0ab3 dcbf 7199 a255 d27a c7bf
00000670: 74d5 7a66 8b5b 833f 8ce3 0e11 4647 c43f
00000680: dd76 c7b9 0645 e33f 4a66 fadc e54c ed3f
00000690: 1222 e5ce 05b9 c43f 2287 7f0d fcec f03f
000006a0: 8ef0 bc6d 0b67 a13f 836e d1f0 9d2f e13f
000006b0: 5e87 1083 d87c d13f b09f a642 8852 e23f
000006c0: d85f adab f6ae cd3f 6c65 bfff 13e2 dc3f
000006d0: 1a6e 36fa 539d d3bf 6af7 59a9 6ae6 da3f
000006e0: fb00 2af9 253d cebf a51a 521d 3301 d8bf
000006f0: a02a 2313 55ec ccbf 2570 ab7c 0b7d c53f
00000700: 0888 44bf 5158 d83f 8776 564f a96c c43f
00000710: 69ea 7cb0 fffa cabf 161d c069 8b9a bb3f
00000720: 7490 38df e927 b93f 9969 0156 7ba6 b2bf
00000730: 9a87 81fb 3989 d63f 6aae 1f09 e695 db3f
00000740: 3ba1 5a25 98d5 eb3f 790d 46f4 6780 e93f
00000750: af0b 5f08 223d dfbf 2894 f2e7 0878 c93f
00000760: 3cad 638c 6e1f b8bf 4259 f82a e18b e0bf
00000770: 856f 9dfd cc7e d73f 767a 984d ee68 e53f
00000780: 3966 42a5 aad8 c3bf 52c5 86a2 f628 d73f
00000790: b1a9 1da3 02d9 debf 66bf 65bc 526c dc3f
000007a0: 34ca 2efd c45a cdbf 0ad2 e466 a734 dbbf
000007b0: 1dbf 8082 3981 e0bf 2acf 060c 3051 b43f
000007c0: ef8e 42fa 5e75 db3f 6fde 3335 4ff7 e23f
000007d0: b228 3830 f2cf ca3f 6007 6092 b1ab ee3f
000007e0: 3be2 916f 2a0e f53f d7f7 03f1 37c4 f23f
000007f0: 5a88 95e9 654a d8bf d81d 15c7 b617 a5bf
-0.035845851763839906 -0.022492844810008985 0.2926734183025203 -0.2261826131402243 -1.5220997507354643 0.5527208467406972 0.5244826550423012 0.6130693979282708
-0.0005561406274253443 -0.002571945659432061 -0.001860813857166983 5.833708312069595e-05 -0.0012998412711108282 -9.56140667420401e-06 1.5292421828488807 0.0023501313021648657
0.3731129961676143 -0.7255284605438644 -0.16472953309921065 0.09606034840942017 0.4027299420118086 0.5850310879995455 -0.6647388532229282 0.3886103443801292
-0.11929133482788705 -0.04852306252649118 -0.6437913843692483 0.06049382228925087 0.3887151382591887 0.025833340007004792 -0.07391424087133802 -0.09040760454235869
-1.7833758796388333 0.9410316179719661 -2.7306445219553885 -0.19813116143186243 1.8906745732831676 1.466077427632281 -0.2588075604624597 0.059381463855079857
1.3499894807652189 0.004403630411509154 -0.31949506404803835 -2.4878176124831954 0.32394885237820636 -1.9054809187975794 -0.055826753344335456 1.2992634200182158
0.7938879690463242 -1.395068134242505 0.8959176843504547 -2.4847750975484026 1.8467773722261331 -0.9430735642202781 -0.680278414979945 0.3899195380680715
0.6069242217751972 0.9131286961470281 0.15870574680793142 1.043006820890085 0.05109203614429906 0.5358108904326282 0.2701175914164447 0.5536802851394363
-0.01680029763297748 0.0014740483397609712 0.031647470022599794 -0.003942700352852383 0.02878951962077061 0.04409313311915947 0.00139388270950006 0.003998538619091796
-0.014512300154412731 -0.0062957203566599545 0.017613343272154476 0.010530862517137201 0.021897020484223168 0.02628332747829932 -0.017891866680689483 -0.007521953128490603
-0.013576925410652054 -0.013977106668000795 0.03891715975688038 -0.006587825490005022 0.09672953848362023 0.06617254562232985 -0.041961632478892154 -0.03875287680457873
-0.016839738402005082 0.001827742099500694 0.030599871763598983 -0.003994076786932296 0.02748550960062725 0.042988023159375416 0.0032705105306787266 0.00439060243538441
0.028228540548995852 -0.2383834584500479 0.3966836985131882 -0.06297973872198656 0.8776113105507497 0.4576883789424266 -0.40889964804050544 -0.44687081026299713
0.002566431160859805 -0.3656983895779115 0.2521915887938527 -0.09808557424390957 0.574457340882597 0.24185182136852734 -0.5309073977953229 -0.23350408179246807
0.03497111449274527 -0.33975827354678395 0.583391526166498 -0.11625894676999377 1.0925838485857666 0.5466142738089835 -0.6168354686853565 -0.5481770851716857
0.04190493780871356 -0.37571451195814237 0.5375074404924438 -0.09829269296568761 1.3270311316849506 0.6590841911939624 -0.5098044111856679 -0.6635518114915728
0.4486348189874278 0.2339756141838743 0.44084236734533 -0.20786769266257474 0.1294869777394716 0.6192458399496059 0.07529859544575003 -0.16533526539494803
0.0031854062928208483 -0.12968427688746154 0.18328704199616758 -0.5807039384038154 -0.31686605434778253 0.3234187302878477 -0.6510246789332016 -0.9483783076854314
0.7071895338131566 0.3797053288574735 0.6896296164946509 -0.3985529230375488 0.07768767492401289 0.9280224261318386 0.089419679936286 -0.27836668841768153
0.5130252199087716 0.21610670037485435 0.11152770402391221 -0.21712342971010723 0.1429678102896578 0.6166629524031896 0.22745711171929653 -0.3707741283623235
-0.3235584177655479 -0.2064137714271697 0.20480203910519668 -0.3511706430803523 0.5437401384054567 0.3340534926134281 -0.10358570094959342 0.4723752451916284
-0.15567842080648994 -0.5287913017470655 0.005330489356370645 -0.6994326814939299 -0.062046106469940056 0.12955545470052138 0.8230985963127911 1.203187274403948
0.020596191424676332 0.24882271051521546 -0.34071689652089837 0.25555787172747196 -0.26646508368522714 -0.17191991203914142 0.05528073722677211 0.22597325907187707
0.3093085553659678 0.36180338248142535 -0.3324913528891286 0.2110567096195305 0.1532300406872105 -0.24807307826385977 -0.17923477503606697 0.05112278618336263
0.8500836818484685 0.7963639680015576 -0.5520390867434134 0.18710194136314184 -0.06756660814140206 -0.5194598471301726 0.3611423530166584 0.6468293082438559
-0.23986411069791627 0.24730983050220393 -0.2670087330893735 0.2119133692820946 -0.4484279067231224 -0.18343571835903164 0.009451951088844203 0.1584251006404681
0.6021760586260957 0.915636951063058 0.1618964443425886 1.057857563712283 0.03398929323745491 0.5370626166799898 0.27324497985147456 0.572574739625443
0.2319019640224258 0.4512987134490547 -0.3064775413019746 0.42031351602769595 -0.23624109903540344 -0.37507322181083175 -0.22596229013864377 0.1678785666216537
0.38039058378683466 0.15956608175195106 -0.21078487508369229 0.10782691318319268 0.0982652826283486 -0.07285281038040238 0.3521256404984513 0.43102408305160245
0.869823525387836 0.7969245692224113 -0.48810625855929407 0.19897567105832192 -0.09422961165880833 -0.5170751418361663 0.36711430327499556 0.6690589442767549
-0.15504963940911567 0.3618752085850093 -0.4819952576569007 0.44411152265728615 -0.2293325649494179 -0.4250887398550566 -0.5157744931111413 0.0793638257371724
0.429038757700467 0.5926891364205867 0.20947100977384064 0.9584586962593953 1.3159584387013996 1.172904912440108 -0.37954089938114566 -0.04119654827314506

bias f8 [84]
00000000: 7c9a b8b5 c820 f0bf 4b4b 3acb f9e9 e0bf
00000010: 2dec cc3a d737 cd3f e126 da0a ff05 e53f
00000020: fb6f e2c3 2456 eabf 47ea 70c1 788c dbbf
00000030: 975c 80bb 7c66 b7bf 0814 1abc 5d37 ac3f
00000040: 3888 db39 9cc6 753f c308 d7c6 1975 8a3f
00000050: e03e a05a edbe a53f dff7 f5a1 4f51 6a3f
00000060: 6c46 d5ed 2f2a dd3f aa39 7d17 99dc d13f
00000070: 656c 8852 6873 e73f 8927 a0f0 677a e13f
00000080: 9758 0a58 ed25 92bf 4dfa 5a28 5dc2 b6bf
00000090: 443b 5f69 168f b2bf 9385 2872 b8c2 ddbf
000000a0: b2d0 0b13 5aab b2bf de06 e70e e9ed ecbf
000000b0: 1572 e77b 329e d1bf 1d34 5db3 7db4 b5bf
000000c0: 16ce a605 e339 e2bf d8e6 f368 4c52 d9bf
000000d0: 7f32 b3ed 47dc a83f 6b27 6e32 fe71 b3bf
000000e0: d370 d318 56e2 d7bf 95c0 64da 0d2c e1bf
000000f0: d9b4 2bae 9e36 b2bf 0ba5 2591 f2a1 dc3f
00000100: 0cb9 5dcd a339 c0bf 35c6 d58c 9a2f d3bf
00000110: afbf 1ee0 5d8b cbbf 866b 04c4 2cf7 a33f
00000120: be5b 48fe c6cc d43f a4eb 12f5 0a5d 14bf
00000130: 2933 8ee6 732c ddbf 9062 4cc8 ed1b 01bf
00000140: f0a8 0a95 bbf9 ef3f 9a6c ff52 87d3 ef3f
00000150: 7f40 334e 29eb f2bf e4a2 543b 6b52 e0bf
00000160: 62b0 e66b e28d cd3f 6fd2 3271 8deb df3f
00000170: 40ce d7af e298 e53f 1b8a f32c c6ad eb3f
00000180: 73de 1d7d f468 df3f b2f1 550d f19e e6bf
00000190: 595c 48fe c6cc d43f 5e30 5d19 97ba b3bf
000001a0: db75 233d 94e1 fbbf f136 de52 79d9 ba3f
000001b0: c224 7133 70d1 e0bf a47a 478a 2028 ddbf
000001c0: 7583 0902 9fe5 b5bf b761 03fc cb5a 803f
000001d0: 3ae0 018e dc6a e43f f1d9 4e53 6873 e73f
000001e0: d3a6 3b19 168f b2bf f0a8 0a95 bbf9 ef3f
000001f0: 550c 531f c070 49bf 06f0 22ea 583a 51bf
00000200: 8b14 e093 b0bc 50bf 1e9d 8065 0a70 f3be
00000210: 842e 6add c0f4 e5be c27c 18c3 a39b 0ebf
00000220: 8850 b6cb 30e5 893f df9c 9e90 0fbe a53f
00000230: 9c03 5163 c16f 8a3f 500e 03a9 0a15 803f
00000240: bc0f 88ed 8f55 e2bf e97d a85a 7819 ecbf
00000250: 226b 0752 ca42 823f a321 8d62 17ff ef3f
00000260: fca8 8bf5 0701 78bf b0cd 3df2 fa54 9f3f
00000270: 293b 43b8 041b b03f fd79 ebf5 acdc 88bf
00000280: bb8c b53b adf0 e0bf 0ddf 5b6e 0451 b93f
00000290: a7a1 e122 0ff1 dbbf 044c c026 ffc3 e5bf
-1.008003911827159 -0.5285614938060034 0.22826662417523505 0.656981965251557 -0.8230155778760485 -0.430448712260532 -0.09140758111640178 0.05510991021314032
0.005316362626873121 0.012918664341558977 0.04247228366159361 0.0032126002622012563 0.4556999037350582 0.27908923429358856 0.7328378307314664 0.5461921405524076
-0.017722805498657648 -0.08890325770605863 -0.07249584267195269 -0.46500979564924555 -0.07292712178224539 -0.9040417948783348 -0.27528059101112606 -0.08478532437330029
-0.5695662603743041 -0.3956481003693688 0.048555610433685274 -0.07595814448555209 -0.3731894724312614 -0.5366276994227684 -0.07114593269553228 0.4473844926311165
-0.12675902869836653 -0.29978049996779826 -0.21519063418736326 0.038995169570816876 0.32499861557283427 -7.76803911034922e-05 -0.45583817973310886 -3.263301281303699e-05
0.9992349539727723 0.9945713635492155 -1.1824124388404298 -0.5100608977128016 0.23089247006044206 0.49875198416274363 0.6749127802308479 0.8649626615481937
0.4907809469072852 -0.7069020519698397 0.3249986155728429 -0.07706589097250702 -1.7425730121825527 0.10488088868279612 -0.5255661968923493 -0.45557416442708587
-0.08553499030814556 0.00798568117936403 0.6380446218090647 0.7328378321752195 -0.07249582401314152 0.9992349539727723 -0.0007763803575006148 -0.0010515087420079907
-0.0010215496436114825 -1.853719581404206e-05 -1.0469469015526223e-05 -5.838006508107056e-05 0.012644177643587065 0.0424656738317084 0.012908469050786846 0.007852633745989795
-0.5729446067130008 -0.8781091471354873 0.008916454914403685 0.9998890805082293 -0.005860358324506484 0.030597611460917384 0.06291226862525136 -0.012139655356290463
-0.5293794790453811 0.09889247602756886 -0.4365880814207465 -0.6801753765925018
