current_model.pt (torch, 52303 bytes, 8 tensors)

weight f8 [32, 84]
00000000: 2a1c f0d3 2160 c7bf 595a f8d9 93f8 c03f
00000010: 3765 4c96 9fb3 ccbf ceb8 74c8 d90f b63f
00000020: 2442 6819 ac2d b23f a504 7dd1 9427 c6bf
00000030: 1cb2 05f3 70b3 ccbf 41f7 04bf 099a a83f
00000040: 03da 7e47 e8ce 643f 9fa9 e40e 9ea9 603f
00000050: 624c 913a ab2d 97bf 6aa8 fc6b 77b6 a53f
00000060: 9087 6e68 9fa0 a93f 333b 5737 b0fc bcbf
00000070: 77f5 bdd0 36b5 aa3f 9c54 3abc f2ed ac3f
00000080: 93f0 6fcd afd9 b1bf 0461 baff 6b01 98bf
00000090: 72fc c109 d416 9abf 7492 56c1 022e c6bf
000000a0: 5bb8 de6d ab44 c0bf 7028 f858 2714 c4bf
000000b0: 55b9 b629 dee1 c2bf 6d93 a7b0 6d9a adbf
000000c0: da3e dc37 211d afbf c237 b8bf e626 96bf
000000d0: 76b4 2845 d241 c03f 7195 63ed 4065 33bf
000000e0: 2a00 5ba8 926b 9cbf 2f14 1b7c ed80 a6bf
000000f0: e47e ad38 2b55 93bf 175d 802d 9c17 a83f
00000100: 1ea3 6976 c26d b8bf 433e 010f 2e83 c0bf
00000110: 39e1 1532 97c4 bdbf 0c5f be7a 3d81 b3bf
00000120: c7e1 2754 9aa0 c63f 7358 0200 0000 0080
00000130: b980 1fec 1f09 c43f bacc 0000 0000 0080
00000140: f0d3 aea6 4037 b0bf 1e3f 70d1 2c57 9f3f
00000150: 5bb3 67f8 3533 933f 6054 bd0a 4038 c6bf
00000160: a66b 8310 a1d4 b03f a914 cc4d 806f 933f
00000170: f82d ffa5 78d8 91bf 6204 f93f 01ec b23f
00000180: 5683 a7e5 589b d1bf 948d b27d 052e c7bf
00000190: 7067 7dbe dde8 c13f 2341 343e 7226 b13f
000001a0: 3a74 2468 8d51 d0bf cc3a 5144 6dd3 ce3f
000001b0: c175 fa49 1f22 903f 9e1c 9891 ff59 a23f
000001c0: 33a8 97b7 841a a4bf 8bf8 6dd5 255d a3bf
000001d0: e4e8 42c1 7d26 933f e784 81c8 4211 b53f
000001e0: 4066 1008 8259 c2bf c86b cd44 a2e4 6b3f
000001f0: 2be5 0000 0000 0080 ec74 0200 0000 0000
00000200: dc53 0000 0000 0080 631c 0000 0000 0000
00000210: 6d90 0200 0000 0080 6579 0000 0000 0080
00000220: a520 7197 1451 b2bf 3076 807f 4031 a73f
00000230: ba8f 8e95 1f49 b7bf 4dd4 843b 3853 7b3f
00000240: 659b 26c8 4407 c1bf 0553 2616 282c 9ebf
00000250: 7ac1 4634 a63e b1bf e1c1 12c1 f08a babf
00000260: 3473 931f fc5f b73f 1490 0ad0 eb8b 7e3f
00000270: a97a 9bce 949f a3bf 69ee bff9 45bb c13f
00000280: ed90 7a3f 6143 c23f c1dd 5074 93ea cdbf
00000290: 674b 509c 14de 5c3f 274f 5bcb f0e2 bc3f
000002a0: 562d a6f8 d3f2 b6bf e291 94ce c391 d3bf
000002b0: 8445 ea8c 26f5 d63f 1d80 cf07 a247 a23f
000002c0: 55f3 e157 7d8b d03f 85ff 4fe2 cf3a c1bf
000002d0: 0318 2b8b a294 c8bf 5831 f3c7 6a2a 9abf
000002e0: 4d18 023f d4cc 83bf 48a1 d754 3bdd ad3f
000002f0: 80bf 6cb9 5d5e bf3f 2f56 8d0b 8bcb a13f
00000300: 382d db2d 243e d0bf e0d9 74ca 7e3b c23f
00000310: 0d17 4270 d991 ddbf 734b ae9a c94e dbbf
00000320: bba3 0191 4ae5 bf3f 6d25 8ef9 0496 d4bf
00000330: f19e 3690 06a9 aa3f 934e ccf5 4fb9 adbf
00000340: 0b32 0b19 ff66 c93f 6a64 840c e862 b73f
00000350: 72b4 6d76 4b87 cfbf 88ec 4ac9 31db bc3f
00000360: f976 5d9d 1017 d1bf 1ac5 20eb a856 e1bf
00000370: 10b9 16ef 3ca3 99bf 5b4e 7313 2a13 9a3f
00000380: d394 9045 b07e 8ebf cea0 0e98 d76e d3bf
00000390: 7396 8f28 ac8a b8bf b3bb 9394 1668 9b3f
000003a0: 4223 cd71 9849 e23f 2764 bab2 ef93 a0bf
000003b0: 01cb cc9e 96a1 be3f 373d 6364 bf68 e53f
000003c0: 7f75 aa56 cb7e 8e3f 019b 0100 0000 0080
000003d0: 410a f2d4 581c a63f 3c60 0200 0000 0000
000003e0: fa7c b34f d86a bd3f 1e1c f586 e706 b7bf
000003f0: ac11 7231 60f8 703f 247c d7bf 14ca d53f
00000400: 2f58 cfbf 8a3c 993f 2015 4246 aa44 b2bf
00000410: baa5 c865 246f bdbf f6e4 0cb9 6595 dabf
00000420: 763e 8b32 d9c1 dd3f 7cba 2998 f94f cf3f
00000430: 3a89 b673 6f73 b73f dbfc 8202 578f c33f
00000440: 7bbe 6f69 bc52 e9bf b51e 918d 2719 c13f
00000450: cff0 5c1a d71a c1bf 7e2d 069e ee1a 88bf
00000460: 7993 f3b5 f4d9 be3f fcd7 9011 adf6 dd3f
00000470: dc4c a767 c7b0 aabf afbc 3fe1 dd19 e0bf
00000480: b953 b826 2741 c23f 38f4 ec4a 7d07 b7bf
00000490: 0c7c 0100 0000 0000 0ab3 0200 0000 0000
000004a0: 9b3e 0200 0000 0000 595f 0200 0000 0080
000004b0: 953d 0100 0000 0080 10f4 0000 0000 0080
000004c0: af47 59ab 158a 833f 5090 3102 264d b93f
000004d0: b4a7 2b86 62b3 93bf b50a 40cd 3843 8c3f
000004e0: ed17 7a7c 9c18 b03f 36db 061e fca9 a0bf
000004f0: 2e0a 4e0d 740e b4bf ca0c 7cd0 53cf 83bf
00000500: c9b0 04ae ae55 973f 3002 9b7e 6551 8abf
00000510: 60b2 6836 49a4 8d3f 4e50 1bde cb06 c3bf
00000520: f530 f582 f3ee b03f 9cf8 7b47 2068 bd3f
00000530: dd76 fed5 ace7 c83f ef8d af8d d8cb 76bf
00000540: dc54 e62d 303f a2bf 08ea d30a 3d89 a6bf
00000550: 0ff0 df25 58da cc3f beb4 c628 973a a63f
00000560: 7c3d d40e 4862 93bf f5f2 0015 8b79 c03f
00000570: 265f e752 86f0 d93f 17d2 d99f b379 bebf
00000580: 397f 09dc 5186 b33f 207c 2406 86bf c03f
00000590: 989e 0b77 7a77 b53f d76d 7e5a 99c9 b73f
000005a0: 7abe 673b acd6 bcbf 76df e825 bc6b a8bf
000005b0: 0682 8863 b962 953f ad13 1869 a92b c0bf
000005c0: 1c5c c073 4f02 bfbf 0942 9eb0 6805 a8bf
000005d0: 708b 1bd9 b667 c23f 6cf2 3c2e 81bf d5bf
000005e0: e6db e5df 63e8 ca3f 8e9c 7480 32fb c83f
000005f0: acc7 7230 7f19 b0bf 70f5 3aa1 8420 713f
00000600: ffd1 272b bf24 c5bf df32 3d82 1cd7 e0bf
00000610: 6a52 bb0d 8cb7 b53f 00b8 e2d1 f34f a0bf
00000620: 76c3 43f9 2b4d c2bf b362 abb9 d72d acbf
00000630: 7103 544d ebd5 b7bf 95ca 48ff c6d2 b5bf
00000640: 428d cc5c c264 c3bf b38f 9e56 c3f3 d5bf
00000650: 4a5b c6f3 ee55 d0bf 88fc efa2 0280 ab3f
00000660: 2ac5 e367 918a c63f 10f7 0100 0000 0080
00000670: 4c94 bae8 9b9a adbf 4688 0100 0000 0000
00000680: 8273 869f 822b 73bf ffc2 8918 fbae af3f
00000690: 0b21 c8f5 af30 a03f 7d32 46f4 3c5d 9cbf
000006a0: 30e9 fdcc 4d51 c4bf fffa e757 b7a2 ccbf
000006b0: 2fd7 1021 de93 bf3f e382 3305 0d29 cabf
000006c0: 6c27 40c8 0cae cbbf 588c 20b5 fba4 cd3f
000006d0: 551e 1fc2 417e ba3f 9c1c 9878 9a63 cc3f
000006e0: d78d 741a e987 d3bf 85c7 9cce 4684 d3bf
000006f0: ea4c 3eee 846d d1bf 1a03 dc2e 5f03 b53f
00000700: d98b df09 6de4 c43f 5fe5 1211 85a4 93bf
00000710: 31a0 f062 fb78 c53f 4653 70d2 9d44 b73f
00000720: 15d5 98e6 e246 b93f 072a 9e9c d66a bd3f
00000730: 1028 0200 0000 0000 0429 0200 0000 0080
00000740: 4f8c 0000 0000 0080 e80a 0200 0000 0000
00000750: 7823 0000 0000 0000 cb6b 0100 0000 0080
00000760: 5de6 ea98 b27e 903f 0119 53dc e751 c23f
00000770: d33a dad9 1ef6 9b3f 58e3 6f4f b6d8 a13f
00000780: c491 0d64 e87d c23f cbb0 2175 1f20 a9bf
00000790: c2d2 1218 a27e ba3f e4c1 8996 15ff 96bf
000007a0: dd57 694d 8769 abbf c112 b36f d93d a13f
000007b0: 7449 8f68 2f1d 98bf d0f3 b8a5 f5d2 ad3f
000007c0: 6172 de55 44e9 b1bf b601 eef6 098e b6bf
000007d0: d6c6 c802 3ca3 4f3f dec7 d7d3 c3ac 87bf
000007e0: 09c7 2f6c 6a22 ca3f 271f c4b7 d1f7 a7bf
000007f0: eb12 063f 8111 d83f ec0a 4294 527c d53f
-0.18262122009784437 0.13258598464081464 -0.22423167074956904 0.08617936271614043 0.07100940342230239 -0.17308292607234424 -0.224226111090858 0.04805021721629866
0.0025400673584627955 0.0020340048860322947 -0.02263515038459863 0.04240773385238657 0.05005357885171613 -0.11323071814625223 0.05216380403633541 0.05650290057853022
-0.06972788587148875 -0.02344292400684457 -0.02547770795399313 -0.17327913704243125 -0.12709563126321907 -0.15686504215438246 -0.147517938964891 -0.05781882077625409
-0.06076911742104381 -0.02163277192271785 0.12700870873360132 -0.0002959521783750452 -0.02775410797653436 -0.04395239009821982 -0.01887958081658682 0.047055130533573734
-0.09542479887899133 -0.12900329334887503 -0.11628098461904281 -0.07619079825087399 0.17677620991868379 -7.59453e-319 0.15652846364446818 -2.5894e-319
-0.063343086904595 0.030605984004124946 0.018750041281168844 -0.17359161877053264 0.06574446347387539 0.018980030773509658 -0.017427334911003428 0.07391364871820508
-0.2751066439359894 -0.18109196317264475 0.13991901208174395 0.06699289339690444 -0.25497756166607 0.2408272346096595 0.01575516594913551 0.03584288265488421
-0.0392648195373372 -0.037820036223807106 0.018701519890535048 0.08229463000454339 -0.14335656541588726 0.0034049195586880222 -2.89853e-319 7.95465e-319
-1.06066e-319 3.5904e-320 -8.30253e-319 -1.5354e-319 -0.07154968926727408 0.04529763752382754 -0.09095952416697531 0.006671161325631903
-0.13303432248104766 -0.02946531901541773 -0.06736220146445318 -0.10368256295874502 0.09130836268327586 0.007457657950599401 -0.03832688352644215 0.13852762884913553
0.142681270595069 -0.2337211912106181 0.0017619324946777871 0.11283783879053698 -0.08964276142630942 -0.30577178167211916 0.3587128044246912 0.035702765897213086
0.2585137708882049 -0.13460730123915368 -0.19203597827271332 -0.02555243344686295 -0.009668024227959782 0.05832848940537133 0.12253366257641396 0.03475603595749665
-0.25379280546322347 0.1424406517559893 -0.46202693903647757 -0.4266838083796564 0.12459245720096039 -0.32165645952826233 0.05207081327836061 -0.05805444598641176
0.1984557029994821 0.09135294252009066 -0.2463163688911752 0.1127196422993838 -0.26703276984868257 -0.5418285934776208 -0.025036766140766054 0.02546373122898014
-0.014890076754520731 -0.30364026879625505 -0.09586597433334436 0.02676425248949572 0.5714838240320221 -0.03237866455783261 0.11965314270927864 0.6690365753837914
0.014890278417903911 -5.1984e-319 0.04318502044136042 7.693e-319 0.11491157480076089 -0.08994910282955046 0.004143119577865322 0.34045904860062337
0.02464501186099016 -0.07136024680410857 -0.11497714505153214 -0.41536849089932504 0.46495656906061045 0.24462814264139243 0.09160515379929715 0.15281188604965376
-0.7913496074015279 0.13358015453763064 -0.13363159930475496 -0.011770118901742729 0.12051324312376534 0.4681809112111066 -0.05212996616651264 -0.5031575583833695
0.14261330977083533 -0.08995802954901044 4.80686e-319 8.7403e-319 7.26766e-319 -7.6818e-319 -4.0168e-319 -3.0869e-319
0.009540719310425631 0.0988334422450532 -0.019238986434096453 0.013800090564477821 0.06287553824412813 -0.032546881356600485 -0.07834554028344407 -0.009672789382881315
0.022787789698825365 -0.01285056393260317 0.014473506901674316 -0.1486449083810179 0.06614610621653923 0.1148700880548596 0.1945701641933998 -0.005565496360734098
-0.03563833771037547 -0.04401579625296753 0.22541334008553846 0.04341575978046695 -0.018929601578802288 0.1287092068249859 0.405305462799776 -0.11904451992615638
0.07626830694198085 0.1308448343270081 0.08385434538251457 0.09291990718195763 -0.112650646689639 -0.047696952464717876 0.020884415340448846 -0.1263324511675398
-0.1211290032955365 -0.046916266975248595 0.14379010773617606 -0.3398135139030163 0.21021698410524364 0.19516593239061247 -0.06288905079671164 0.004181402287654165
-0.16518392188267225 -0.5262587112170783 0.08483195624587272 -0.03185998856621097 -0.14298009558799735 -0.055037251867991265 -0.09310789716620406 -0.085247456860808
-0.15151242762758882 -0.34300311526225896 -0.2552449589360789 0.053711016073060114 0.17610375950565899 -6.36278e-319 -0.05782019821098369 4.9615e-319
-0.004680166479741456 0.061881872887971305 0.03162145495667986 -0.02769942513400502 -0.15873119840018424 -0.22371570389073978 0.12335003192205528 -0.20437777284589406
-0.2162490823541775 0.2315973886880751 0.10348902692123237 0.22178965462100997 -0.3051703222610888 -0.3049485223483475 -0.27230952516511187 0.08208269971875062
0.16322100622264094 -0.019182280699827966 0.1677545769791791 0.09089075458207416 0.09873788957414249 0.11491147350003682 6.98253e-319 -6.9946e-319
-1.77463e-319 6.61376e-319 4.486e-320 -4.6013e-319 0.016108313163135757 0.14312456377064822 0.02730606274286169 0.034856507489115784
0.1444674004116121 -0.04907320313290738 0.10349476897938373 -0.022457444489590986 -0.05353949375118792 0.03367499817389819 -0.023548832661455646 0.0582501187131822
-0.06996562096032612 -0.08810484198148213 0.0009655039808135989 -0.011559991743499805 0.20417528421926814 -0.04681258552778749 0.376068412348373 0.3357130477744892

bias f8 [32]
00000000: c3b5 fc4f 644c c1bf 025b 24fe fafd b93f
00000010: 8aa0 ec0e 01ae aa3f 9617 b1b2 4db6 c83f
00000020: 500d a40f 94d6 c5bf 5143 ebd8 453a b83f
00000030: 17bb 729c db08 b8bf 2f00 ed60 02e5 b93f
00000040: f7bf d9ad 5d04 77bf 7765 03f9 7176 8d3f
00000050: 7449 a2e6 551b b1bf 621e d475 b207 cc3f
00000060: b755 a99d 8fb1 b8bf 5648 bd2f c47b 9d3f
00000070: 0ed6 1a8c 8a3c 833f 1318 15cf 8fd1 bb3f
00000080: 21ae f183 a5c4 b9bf b061 05b6 0e66 cc3f
00000090: 4d33 0f19 d2b8 b3bf 34ca 84bf 7acd b9bf
000000a0: 21fd 5043 b331 c13f fd33 1b9f 0987 c93f
000000b0: c664 d1b8 a9ee c43f 3546 56ac 3946 a63f
000000c0: f35b 803e 0c8b b3bf c086 b721 6af6 78bf
000000d0: 9236 e6df ea5d b4bf 58dd e68b a280 a23f
000000e0: 517a 7457 1801 c2bf 92b8 d199 0582 acbf
000000f0: 1fa3 19bd 224f ac3f b819 0a09 9d2c c83f
-0.1351437941133736 0.10153168396605497 0.05210879618817994 0.19306346154388326 -0.17061091197693168 0.09463917299150394 -0.0938851601556333 0.10115065447189474
-0.005619398054122363 0.014386072551519231 -0.06682335739814055 0.2189848971686273 -0.09645936583668556 0.028792443670063804 0.009392816925678307 0.10866640859339353
-0.10065683814325911 0.22186454665894706 -0.0770388899974936 -0.1007916181158997 0.13432923113757858 0.19943352002010775 0.16353341602624577 0.04350452641223194
-0.0763404514876667 -0.006094374253253043 -0.07955806700030113 0.03613765676294162 -0.1406584193254781 -0.05567948820758874 0.0552912574610842 0.1888614935052837

weight f8 [8, 32]
00000000: 02e2 b59d 4808 a93f fd99 348c 9272 d73f
00000010: af1e 1ae2 852c d3bf 39f0 7839 ebfa d33f
00000020: f31e b559 d0ef dbbf 3af6 8976 e5b6 b1bf
00000030: 83a8 0652 f2dc d8bf cf57 92bf dc09 c3bf
00000040: 7fc4 adc8 a68c d83f 432f bfc6 a767 ccbf
00000050: bf37 0307 d9c9 c3bf c283 994b f3a7 bebf
00000060: e25a f9f2 f401 ca3f 130d 806f 18b5 ccbf
00000070: 4331 43f0 5a2e dabf e601 aaec 1730 b23f
00000080: efb5 736e 6ea2 dcbf 1ba3 44ff ce1c cabf
00000090: c175 9bae 768d d93f da8a 0b3b 2051 aa3f
000000a0: cbbd 5f68 1501 ca3f 8aa7 9f00 b5a2 d63f
000000b0: 577f ffd2 d749 78bf 1b3d 2b90 f24e cd3f
000000c0: 8939 b53e ac6b cbbf cd7e 898c 3241 d33f
000000d0: ae0d b22e 2e9e e0bf 4b6e 4f03 6b55 d63f
000000e0: 3d3b 5796 d04b d63f cfea 91cf 3854 d9bf
000000f0: 812c deff 4f88 cbbf e258 a686 2b69 c8bf
00000100: 7602 b2d1 7956 ba3f cef3 e0f7 3e39 dfbf
00000110: a970 cfd8 9304 e5bf 3a2c efbb 6664 a23f
00000120: 139c ac33 1b51 b73f 63fe 892d 44c7 cf3f
00000130: 5aad 291d d9bf 923f 9655 0e37 010d dabf
00000140: e74e 1d01 d69f e73f 3824 c18e b56e d23f
00000150: 6269 6084 3937 e3bf 963d 1517 799a de3f
00000160: 3a12 ad8c b258 d83f dac6 318f 0706 e03f
00000170: 76fa adc1 0072 94bf 0a30 5c7b d7f4 d4bf
00000180: 5bf0 0baf fa84 dfbf 6e2d 984d 8483 de3f
00000190: 6517 8d3d 76eb e2bf dcc6 e3c6 ddaa c5bf
000001a0: 84a4 5484 7757 c9bf 9694 d679 d51f b8bf
000001b0: 401f 07c8 06f9 8fbf a9f6 7fa4 661c e23f
000001c0: 1912 03f1 8d98 74bf 563d dd49 7dea b0bf
000001d0: 2d9f 06fe 5388 d2bf 3605 6fae 0446 bd3f
000001e0: 596a 61f1 08f9 eb3f 4afe 1056 c7ef debf
000001f0: b068 8153 d341 bfbf 1fb9 c9dc ab40 d13f
00000200: 44af 8b4c 5ad2 d4bf 927d 79e1 fb04 c8bf
00000210: c83c dee0 2d35 e1bf 9b48 a1a4 1aca c43f
00000220: a1ed 34b7 e90b d7bf bdc4 8942 9025 d63f
00000230: 6369 eb3e 1194 c4bf 5399 469c cdb0 b0bf
00000240: e7c3 55c0 1e3c bd3f 474e 0fec 81f6 e13f
00000250: 5f1d 9a82 4f6b c7bf fe9f c5a4 2223 ba3f
00000260: 42ae b832 fd7d cf3f 921e 409e e6e5 d6bf
00000270: d04f 6d13 9a16 b4bf e684 241e e099 c4bf
00000280: c3d1 955e 76fa cdbf db35 7d17 7dc4 cf3f
00000290: d836 e8da 8b5a cd3f bff2 f4eb 090d e73f
000002a0: cd1f 909b 1c0f d73f 0b73 bac2 22ed 8cbf
000002b0: f6e4 6e90 4fa2 d53f 8d4a 8692 e45d c43f
000002c0: 27d0 65e2 090c dd3f 19a5 1f5f 4ac6 c1bf
000002d0: 05fd a55e 5bd7 e43f ade0 6aa0 d35c b5bf
000002e0: 209e 7906 3994 cdbf baed f14f 0200 73bf
000002f0: 9386 b56b dfed c3bf 3c16 b262 bd11 993f
00000300: 140b 1916 7367 e0bf 3e40 170a c2b8 b9bf
00000310: 5ed5 516a 99d0 b83f 2ccd 64f9 ee2e e43f
00000320: 19fa 3f6a 38a2 c4bf 66c4 55df edaa a93f
00000330: 47b0 6d57 674a c13f 8c08 1454 1dc2 dcbf
00000340: d196 d55e 1f6a d33f f968 5697 7df5 c0bf
00000350: 8dd7 39b1 d122 d0bf 6f9d a2bf 48d7 bf3f
00000360: aa86 6418 bf4c b13f e429 7dc9 3ba2 dcbf
00000370: a562 43b8 faf9 d03f ba2b 8fa7 a46f dabf
00000380: f0ef 3aa1 4709 c4bf 88f6 ef7e 94cc c03f
00000390: 7bba 92f2 668b cdbf e442 5daf 07a1 ca3f
000003a0: f8d9 d8d7 b9e5 d33f 4076 af6b a837 d23f
000003b0: 6539 a18f 0fb3 e03f d14d 8072 669e da3f
000003c0: 4349 0fab 94b7 b4bf b522 3d71 788b d6bf
000003d0: d1a7 b239 9e2c dbbf d2f6 9a98 35b1 e33f
000003e0: fb46 99a5 12d0 ccbf b10f 908e 5914 ca3f
000003f0: 1e9e 8a24 1b90 c63f 7a51 d574 3ead ccbf
00000400: 8ec3 c13f 99ff bb3f 895e 52d1 7d1b b6bf
00000410: f12f b33b 941d a83f 3986 af52 ef87 cc3f
00000420: 843f 7f8c 1fea 9ebf 3733 3a13 d5a5 adbf
00000430: 015b 7ad4 928e dbbf 9da6 a26a 0a32 e1bf
00000440: f9e0 0fb6 4cb9 d3bf 540a 5845 8896 e83f
00000450: 4cb5 65f2 0905 bebf ddc8 70f5 a7b4 bbbf
00000460: 5f80 332c ba62 d73f 58a6 e7c5 fede 993f
00000470: 420a 3fba 7ccb 98bf a2fb 3bff ca56 e0bf
00000480: a3ba 1dc5 7df0 ab3f cdba c091 5658 bdbf
00000490: 5b4a 41d1 88b7 c73f 85cf e89a 52ae cf3f
000004a0: e273 132b 67a5 d73f 6128 69b0 a70a db3f
000004b0: ec53 443d 6354 c8bf 0290 0193 ecb1 c33f
000004c0: 6165 cbfe 9b57 d4bf 5f2d 070a 2c66 903f
000004d0: d2c9 654c 3e4a 88bf 3ae9 1d90 4e2c d73f
000004e0: e1ae 2319 2179 cdbf 9f69 b90e 642c d5bf
000004f0: 439c 6d08 a60b c03f ceef 1f11 1222 d13f
00000500: 7676 73f7 aa08 debf 44be 0d9a b0f3 b73f
00000510: 66c0 771f 9fed b03f c0c3 5970 f8ad c6bf
00000520: e707 1684 2c56 c5bf 70fe 3602 9dc0 943f
00000530: 54e0 48f0 bcd3 cebf ffb6 04ed 8d90 c6bf
00000540: 90c4 ba8d e933 c73f 4cfe 752e 375c 573f
00000550: 67de 6573 9414 d7bf d835 bfe3 9206 c03f
00000560: 4b41 a7a3 5bd7 e03f 9086 e472 902a d83f
00000570: c827 f218 9c70 d5bf e968 da40 334f c93f
00000580: d5cf eeed 1b11 833f a978 8bdd 7778 d43f
00000590: 9e2c 6e60 0388 d73f 274b d3e1 5796 cc3f
000005a0: a536 e74a 456b d83f b5b0 2e83 e9b5 dd3f
000005b0: e898 60c9 5215 c53f 02b4 bb4a efb5 d63f
000005c0: 0eb2 f364 b7a7 c4bf 288b ff46 99d5 d5bf
000005d0: 00dc f938 db17 b1bf c6d9 f8ad 920d ad3f
000005e0: 6948 01d0 af83 c6bf cf67 b236 c8fb d33f
000005f0: e6ae 3584 12b3 c73f 4180 b53c 8e21 d33f
00000600: 4f76 6e1e 5ef6 67bf 8246 00df 8889 b23f
00000610: 3102 16bb ef9e cdbf 2a96 5d82 7390 b63f
00000620: e07e 5297 adad a4bf 5943 4b12 cd01 e23f
00000630: 99a4 c5f8 29c8 d6bf 5031 4d1f 178d c5bf
00000640: 4317 29c7 4e7e c33f 4c80 af6b c846 7e3f
00000650: 8655 afcd ead0 933f b90b 0bf4 7705 dc3f
00000660: 2167 8378 2a0e a93f faa4 ee5a ab2c d0bf
00000670: 1f63 178f 7c99 c6bf bcf2 4fd1 d06a c5bf
00000680: 4f10 0f0f be30 d0bf 3f74 22ac d4fd c73f
00000690: c232 0446 d067 c9bf 32d5 eadf bbd1 babf
000006a0: 7e07 967d 2ad2 d43f 6717 a3fe 77ad af3f
000006b0: cd29 ac68 aded a83f 88cd d651 1dff d43f
000006c0: ae12 2110 b918 ddbf 508a 1089 fde7 e0bf
000006d0: 6074 18ea c473 b8bf 1c3c d908 48cf d83f
000006e0: 38c6 8dd5 6ee2 b3bf e09a 120b 1b43 bb3f
000006f0: 748f 02e7 e2ae e4bf 9fd4 edcb 779c bf3f
00000700: 7aa6 d66a eefb a93f 164c ab6f da5b e4bf
00000710: 11b3 91cb 9a00 d5bf bb1d 9bb5 fcca 993f
00000720: 3ea9 118f 7d2c d3bf cde7 e43c e45e e23f
00000730: 010b 00b9 8b9e 9f3f adf6 c107 e742 e0bf
00000740: de67 b7ce 90b0 d23f 7320 fc31 dc40 d83f
00000750: 09d8 a7d7 aa27 a43f 73d8 5f71 f466 cabf
00000760: c515 be18 8c74 d03f 83b5 be41 c13b ab3f
00000770: a06b b246 0f34 dbbf c7b3 ade8 14b3 c83f
00000780: 52cf 61eb 0be3 b83f 4346 25d8 9e7f d23f
00000790: 373b 1842 7d1f d63f 6eb2 66e1 d87c e5bf
000007a0: d455 ab55 bb4b b03f 8d98 6b2b cded c23f
000007b0: e586 3085 e560 aabf 0bfe 5d98 828b dd3f
000007c0: 90be b60f 1f47 e03f 745c ee32 2325 db3f
000007d0: 4fb5 37f3 5b54 c6bf d83a 5fdf 54ba c93f
000007e0: 3c29 5a8b e66e e0bf d481 62a0 8d1a a5bf
000007f0: 4982 449f b5bc c23f 321d 5d14 bbee de3f
0.04889132428337818 0.3663679475015725 -0.29959246711994586 0.31218987095394685 -0.43651207695482624 -0.06919702667252006 -0.38848550806381626 -0.14873847345432842
0.3835846862558085 -0.22191331104692766 -0.1545974048844396 -0.11975021930403698 0.20318471778838104 -0.22427659458490065 -0.4090792986214817 0.07104634788448258
-0.4474140242226374 -0.20400416816962594 0.39925925303927207 0.051400191505100515 0.203158069576132 0.3536808496561369 -0.0059297972329373705 0.2289717868756974
-0.21422341405782344 0.30085433697057057 -0.5193091308614635 0.3489635021521493 0.3483773677989353 -0.3957654978800464 -0.21509742730663464 -0.19070953440377197
0.10288201684489615 -0.48786901671320215 -0.6568087801529333 0.035922251168436906 0.09108133327082184 0.24826862548433146 0.018309967427211894 -0.40704374672471866
0.7382612249152459 0.2880071539007676 -0.6004912934761644 0.47817828420826325 0.3804136632718699 0.5007360264555374 -0.019966136761917906 -0.32744395300756024
-0.49249140829465937 0.476777148986648 -0.591242904870097 -0.16927692614949919 -0.19798177682358553 -0.09423574661794229 -0.015611699084629671 0.5659669125449983
-0.005028299769211952 -0.06607802441907515 -0.2895708065720893 0.11434964426645852 0.8741497721160371 -0.48338492779655395 -0.12209816731175027 0.26957222520185725
-0.32533891177330454 -0.18765209683895684 -0.5377416030841227 0.16241772688460263 -0.3601021088722636 0.34604269502512947 -0.1607686574196335 -0.06519780221296871
0.11419861026457988 0.5613412485640276 -0.18296235920954992 0.10209862253907429 0.24603238083487794 -0.3577820344366752 -0.07846987699787111 -0.1609459063702509
-0.23420600527209787 0.2481838574116598 0.22932575405905342 0.7203416451007668 0.3602973479432848 -0.014124175613056808 0.33803166489413117 0.15911538271446482
0.45385977849150766 -0.1388638462515608 0.6512886856652648 -0.08344767252390524 -0.23108589950719338 -0.00463868048893395 -0.15569679984314586 0.024481734417824294
-0.5126281196211004 -0.10047543283803947 0.09693297239012597 0.6307291861507216 -0.16120057285293468 0.05013221122033755 0.1350831200501281 -0.44934781275527125
0.3033522058598069 -0.1324917782738522 -0.2521251898500559 0.12437872580141172 0.06757730813526544 -0.44740194965984714 0.2652575301595255 -0.413064159042445
-0.1565331971413566 0.1312432880221659 -0.23081671566383818 0.20803924620351844 0.3108963592416383 0.28464708820488127 0.5218580060261898 0.415917980020109
-0.08092621971380702 -0.35226260241010304 -0.42459827074582984 0.61538200193146 -0.22509987913013405 0.20374602757521879 0.17627276691676824 -0.22403698639631014
0.10936887556614591 -0.08635698662180337 0.047100670135108554 0.22289840257058005 -0.030189984274158657 -0.057905825230682266 -0.4305769991855613 -0.5373584826204084
-0.30818479327673703 0.7683755258916087 -0.1172643868246343 -0.1082253431530122 0.36540083233376736 0.02526472170749225 -0.024213742129868494 -0.5105948433919034
0.05456917792513607 -0.11462918337268065 0.1852885267022256 0.24750740589081147 0.36947039801253656 0.4225253317605447 -0.19007530681179163 0.15386731317551045
-0.3178472507693951 0.016014755355894802 -0.011860357958288246 0.3620792777434364 -0.23025907256611958 -0.33083440244595325 0.12535548602611088 0.26770450279559277
-0.4692790428651742 0.09356216202808648 0.06612581747299515 -0.17718415723677872 -0.16669231843485408 0.02026601148622692 -0.24083673222208068 -0.17628645013012798
0.18127173824681053 0.001425794494792759 -0.3606310965473995 0.1252006160779462 0.5262888141969965 0.37759791584003555 -0.33499815403103783 0.1977294985452496
0.009309976767191511 0.3198527968905958 0.3676765863135162 0.22333811308507132 0.3815472823597282 0.4642280369832961 0.16471323807599636 0.3548544149223859
-0.1613682978562711 -0.3411620324460949 -0.06677026883140513 0.056744178520989716 -0.17589376121992764 0.3122425588750248 0.185152353816526 0.29892307213413366
-0.002925094438480248 0.07241111225473598 -0.2314128554826467 0.08814165051224934 -0.040387558671907575 0.5627198560051553 -0.35596703809876257 -0.16836823490519714
0.15229210590967499 0.007391722577239145 0.0193516433754062 0.43783377487505565 0.0489362022505715 -0.2527264011392415 -0.17655903803713444 -0.1673222562821105
-0.25297500105466936 0.1874337997914228 -0.1984806386830283 -0.10476278511744821 0.3253275133539474 0.06187033637392752 0.04868833449116359 0.32807095520112073
-0.45463396620861374 -0.5283191372912572 -0.09551649775717541 0.3876514517223215 -0.07767384256092036 0.10649270077065465 -0.6463484298624125 0.12348126152740456
0.05075020841770779 -0.6362125569379511 -0.3281619060497159 0.02518839701113305 -0.2995904824407666 0.5740834416712858 0.030878241697801737 -0.5081668044583317
0.29202671229506716 0.3789587486394403 0.039365137887145414 -0.20626693282946781 0.25711347976934135 0.05319026877928492 -0.4250524702453564 0.19296513901954723
0.09721445557243882 0.28903933628052786 0.3456719537215806 -0.6714901354185494 0.06365557519469373 0.14788212413913407 -0.05152051211213208 0.46164002303700674
0.5086818034087219 0.4241416928648001 -0.17444943786487463 0.20099888712726144 -0.5135376664850706 -0.04121821005651652 0.14638395573367038 0.4833209704269904

bias f8 [8]
00000000: 9149 248a bc19 553f be7d 1fa4 633b c23f
00000010: 0d23 9984 b49e 723f 9ee2 d31a bcf2 cc3f
00000020: e6bd 2ca1 8830 b53f 4ae2 4b9f d61e b03f
00000030: 07bc b62e 9574 bd3f 6a0a 145f c6e4 b83f
0.0012878743369283167 0.14243741525477377 0.004545884273803547 0.226157677745296 0.0827718156331155 0.06297055615494532 0.11506016149972718 0.09724082776305357

weight f8 [32, 8]
00000000: ab42 357b 7578 c73f 8205 e639 8429 d3bf
00000010: d164 cd61 6949 ca3f ffb4 7a40 b9b9 e33f
00000020: 8bdd 1f25 eeae cd3f 435e 2cb5 58c8 db3f
00000030: 958d 2aa8 4d31 e33f f843 ddff 5325 de3f
00000040: 0963 e3e4 77d9 d3bf 0c5b ede4 688e bdbf
00000050: 8727 0a4b 28d8 d7bf 9dde 5b5b b4ac d83f
00000060: 5d41 6094 bbac cf3f edf8 5145 bc26 96bf
00000070: 225f 0c86 397f 743f 860f e5b6 7b29 ca3f
00000080: 5946 05eb d587 e53f 8789 d90b 3147 dbbf
00000090: c535 7b8f 869e a53f 42a9 0786 3244 d63f
000000a0: e583 aac8 6ef1 cfbf f772 c23d 8934 b63f
000000b0: a759 8352 442e bdbf b085 0f7a 796f d5bf
000000c0: 6203 5c6e 2ab2 dfbf 4e7f c64c fe1d efbf
000000d0: b957 4ff8 ac27 cb3f b729 8eae 7700 e0bf
000000e0: 21d8 eaff d7b3 e7bf 3955 c6f2 c111 b53f
000000f0: 7484 0729 2566 dbbf 7ba1 4e7e 9f4c e53f
00000100: cb74 83b3 5992 ce3f 86e6 587e f2c7 d73f
00000110: 037d 431e 472c d03f e54b c52c fb2c c53f
00000120: 97bd 1f93 0225 c13f 7728 9691 ecc5 d63f
00000130: 773f e84f 871e d83f b290 b588 4c0e e23f
00000140: c425 4b4e 3208 ca3f f5de 9e2a 10f5 d73f
00000150: 8409 5b4a 1a9c e13f 610b c43a 2897 ddbf
00000160: 6afa bb60 f3c0 ea3f a2c1 c336 1174 bf3f
00000170: 999d 27a8 d645 11bf d709 402b 3103 aa3f
00000180: 62f5 113a f89e e3bf 770b 283c 1b5a d23f
00000190: e3c5 53f7 8b56 cd3f b05d 2f1f b635 df3f
000001a0: 5b6a 1e9d 2882 c43f 1830 2af4 c353 ba3f
000001b0: c481 3e60 5a8f d23f e5f7 0d50 17fa d6bf
000001c0: 5e50 6cc4 82f6 ed3f bfe5 023a 378a ea3f
000001d0: c6e8 838f 6072 593f 8478 6430 1d05 d23f
000001e0: f0dd 6d35 c6e5 ea3f 3b70 440a 7064 5fbf
000001f0: 87e6 d467 4d7f cc3f fe56 4499 9d3d e7bf
00000200: e2b7 05d0 769c adbf 234c f8d9 4a58 b13f
00000210: deae b05c 7d0b d3bf a15c c5ce 0635 b2bf
00000220: 21d6 20df b512 bdbf f563 021b c87f e0bf
00000230: 9b54 44f5 57bb cc3f e791 e7e4 7c02 dc3f
00000240: ba4a 5547 4452 c9bf 8803 d95d ca3b c13f
00000250: 906a 3dfc 40cd d3bf daff 5d86 8d20 ce3f
00000260: 66e2 1d29 ab8a d5bf 7a81 4b81 fc58 c33f
00000270: 8ca0 005c b652 d0bf a69f 2349 b54e 7dbf
00000280: 92fa ccab a2ab c23f 024d 8329 6c3b dd3f
00000290: c121 72be 72cc ccbf 585c b16d bfba c4bf
000002a0: 18f9 f757 72e6 dabf 37aa c89d f11e ddbf
000002b0: ee56 d429 1cdd c93f 4e04 1093 00b4 c9bf
000002c0: c0d1 19fb 54b0 c03f 1468 0bfc 69c6 b2bf
000002d0: ba8e 015e 74d1 bebf 099a a927 1ff6 d3bf
000002e0: 46f4 dc18 1752 c03f 72ea 19c1 b4ac d2bf
000002f0: ec5a 1928 9316 d4bf 99b4 4bb9 1be6 dd3f
00000300: b862 a139 aea0 e43f 003c 9476 5a64 efbf
00000310: d1d9 0cc5 ce17 dcbf b991 57d5 844a e63f
00000320: 6673 fea1 4beb eabf 5b77 9cdc c68b c0bf
00000330: 3470 6525 c113 56bf 3856 93b0 9f9c e3bf
00000340: 22d6 a374 109a e0bf 5579 85f5 6bb4 bf3f
00000350: 2dca dd5e ca84 cabf 28e0 94fc 85fb dabf
00000360: 7504 0dfe 423c bd3f e5eb dff7 7d01 da3f
00000370: c3af c013 dd6c d93f bce8 7400 9268 c03f
00000380: 1f87 a9c3 31cd b6bf fcdf 574b 02b2 e2bf
00000390: e9ee a96f 6e68 d03f d09d be12 9c0e bd3f
000003a0: c16c 646f db0f d33f 91aa d6d3 1c4b 8c3f
000003b0: ae0d 74cb 267d da3f 39ad a981 548d b3bf
000003c0: 1140 d645 6c54 d3bf a598 a0aa 88d2 c5bf
000003d0: b9d0 b036 083f c7bf 64c6 0bad 3cdc c3bf
000003e0: 8a2a 5399 cc2a c3bf c18b 1394 81ea c83f
000003f0: 719f 427c 554a e73f 4b1a 65fa 7c42 bf3f
00000400: 845e 4acf 0166 debf 841f 3bbd f1ae d73f
00000410: 51f9 f353 b72e d9bf c6fe 958a 4109 943f
00000420: db5e f1da 3e27 b03f 65ac bfaa 340b ba3f
00000430: 4352 efa4 1cc3 d6bf 48ce 4b96 67ba d63f
00000440: 1608 bc04 b987 d63f 28d3 eaf2 4fb6 9f3f
00000450: 792b 0321 b8f2 bfbf e87e 97d9 c0e7 e9bf
00000460: c0d2 25c9 f174 bf3f b5d7 c0b6 4a13 c83f
00000470: 5fc4 9f54 2741 ca3f fa9a 44c3 8b8d e53f
00000480: 5598 e121 4d0f ccbf 42c2 d089 2958 cb3f
00000490: fbad ee77 df40 cd3f 0dea ceff b12c acbf
000004a0: 0b68 e1b6 e6ff bf3f 4ad1 a66e efb4 d13f
000004b0: f307 f00b cb15 d0bf 58e6 aacf 5d9e d13f
000004c0: 97f8 6f59 ac7e b9bf 3428 581b 1e56 9f3f
000004d0: a68c 214c 3522 c53f fa54 02d1 b63d cdbf
000004e0: 61a3 8bc8 f39e b93f e755 97b2 271d d33f
000004f0: 9fa5 da9a cb48 d8bf b06f 489a 9ee8 cbbf
00000500: a149 6847 d97b e4bf fb28 4e94 0929 cb3f
00000510: e733 7a37 e99f bf3f 2b74 5d27 0de0 bb3f
00000520: bc8d 234e 85ed c93f b59b a521 1cea c5bf
00000530: 669b 5bbf 7237 d43f a986 e5a1 d725 aebf
00000540: 1d85 f3bd b62b cc3f de00 536b 8c4b c93f
00000550: 22ea 1333 a428 c1bf a35e 7a17 c56a b5bf
00000560: 0444 0e2b 5528 e03f 4843 3592 f463 c8bf
00000570: 30e9 25ba 5e46 cdbf 1081 2c01 810a d4bf
00000580: b0b0 d9a6 9ced d43f a1fa bda4 187a c5bf
00000590: 948c 3446 b3a0 d03f 1778 d75c ad81 cdbf
000005a0: 96bb c40f bd8d c9bf 37d9 dacd d560 b9bf
000005b0: c418 ec0d 5cee b1bf 1148 8ffb e064 d93f
000005c0: 7226 bb4e 3dab c5bf 6304 dc3f 584c 923f
000005d0: 1016 0025 5c4c e1bf ccf4 22f3 8af4 e3bf
000005e0: 4e15 7962 2f91 e33f 7bac 4d5e dcaf d93f
000005f0: 5f7f 941f 68d1 d7bf 0d89 30fc 3188 c73f
00000600: 89cc 6cb7 a7e1 ac3f 33b3 b29a 27d5 d23f
00000610: 090d 2fc1 8345 da3f 760e 24cc 7f13 c33f
00000620: 1b61 3076 e2c8 9cbf 7d52 9354 5c05 e4bf
00000630: 6f1e 502f 637d 4a3f 0bc9 f25a bcf6 cf3f
00000640: 8e93 a222 8260 e2bf d9cf f022 a8f8 da3f
00000650: 9bf5 20dd dc63 c43f 793f e850 944c d23f
00000660: 0b6a ea64 a507 c6bf bb4d 9b14 8ed0 983f
00000670: fe9d dd8a 3daf c0bf 69a6 d9eb b844 b53f
00000680: 12dd 9fa0 683e b23f c3ea 06d8 4f63 e03f
00000690: 3b66 87ae 48f4 d5bf 7d90 f12a 85a5 d8bf
000006a0: 37b0 d50b 3658 b5bf dafe aaea 9915 d7bf
000006b0: 2a2a 73ef 872b db3f 4923 e022 794b e7bf
000006c0: 53fc ea1b 3463 5abf 0903 f57e c68a 463f
000006d0: 4c1a 2b6d 6113 9b3f 35ae 8c0d f173 c6bf
000006e0: 73a5 6737 3126 d9bf 6a88 005c e43b e63f
000006f0: c1d5 85a0 967e b63f a069 d641 9e0d 99bf
00000700: 8a68 12b9 b3ad c23f abe9 f568 f59e cd3f
00000710: 058c fe25 08e8 cdbf 4582 df2e c936 bcbf
00000720: f2e5 5f24 b38a df3f bdc6 78fe 9821 ae3f
00000730: 687d bbb6 074b c0bf c075 5c56 b980 babf
00000740: 251e b296 9c42 d1bf 710e f9b6 ed36 e2bf
00000750: 1277 88ec 2e1b c93f 92a2 d2aa 3a8b c4bf
00000760: abdd 4139 8268 d73f f576 e01e fa48 d83f
00000770: 411f eebb 83f6 c43f 1bf1 7581 ff71 c9bf
00000780: 1f1b 81bc cf0e afbf c1e4 541e 6d83 a33f
00000790: 6e17 3f0e a0ee 863f d3b9 bbca acff ec3f
000007a0: 18d9 0c9e 3bf2 e3bf de32 60f7 572a c93f
000007b0: 9048 4d19 fe81 df3f d619 f7bf fecf dfbf
000007c0: 1954 dc0c 56f0 cd3f 5a9a a571 965a d2bf
000007d0: d4a0 5ef9 182c de3f a229 df74 edff a7bf
000007e0: 9098 4cfb 428b c3bf f62e bb2f c626 d4bf
000007f0: 677b ec98 2031 cfbf 0bf3 fb33 b626 c63f
0.18336361423509592 -0.29940896658089156 0.20536534572128187 0.6164213427888682 0.23190094769209355 0.43410318081575755 0.5997684750076809 0.47102832781553117
-0.31014821388593866 -0.1154542502311921 -0.37256820037929866 0.38554104730381217 0.24745888466760393 -0.021632138949365155 0.0050041434303904914 0.2043909686127529
0.6728314962621865 -0.4262201896400701 0.04222507955055791 0.3479124363790512 -0.2495554427923984 0.0867391372471039 -0.11398722662429482 -0.3349288646696449
-0.4952493741730476 -0.9724112987059728 0.21214830517300046 -0.5000570687564537 -0.7407035826097436 0.08230220963590264 -0.42810944563650044 0.6656033961235573
0.23884125962550792 0.37157881105995505 0.25270250277931455 0.16543521581715406 0.13394195731914912 0.35583032815396315 0.3768633156150751 0.5642454786398245
0.2033751375477505 0.3743324676720328 0.5503055050142369 -0.46235090006682894 0.836053551611099 0.12286479556110533 -6.589052831139918e-05 0.050805603532370895
-0.6131554731543185 0.2867496573891723 0.2292036969807177 0.4876532845059627 0.16022212669197952 0.1028406592469654 0.28999957465023507 -0.3590143472464418
0.9363416515721033 0.8293720372232015 0.0015531485533402541 0.28156213498903804 0.8405486148394044 -0.0019160360471408694 0.22263495988754675 -0.7262714379782833
-0.057834351437904066 0.06775348493128823 -0.29757627536558384 -0.07112162159079329 -0.11356674859492745 -0.5155983474279525 0.22446727252887375 0.4376518474003021
-0.19782308085503592 0.13463716108710977 -0.30940270073703235 0.2353684335794231 -0.3365886594324706 0.15115314782361705 -0.25504836067785486 -0.0071551400635384895
0.1458628977652166 0.4567518620871881 -0.224989264479758 -0.16194908958525178 -0.42031534758270217 -0.45501366051272235 0.20206024210408863 -0.20080573254384365
0.13038122425827048 -0.07334005740577282 -0.12038352294035351 -0.31189707635203995 0.1275051947976939 -0.2917911420587763 -0.31387785831377246 0.4671696958092269
0.6446143270105358 -0.9810001674649129 -0.4389531063383432 0.6965965430104496 -0.8412225879616073 -0.12926564952879968 -0.0013474832718065712 -0.6128691147557168
-0.5188066747784357 0.12384676689314252 -0.20717744476458347 -0.4216017691246656 0.11420077040112793 0.40634106832993516 0.3972695057771 0.12819123289393086
-0.08906851794156666 -0.5842296096370769 0.2563739862887205 0.1135041757357762 0.2978428447547224 0.013815140929030608 0.41388864391793845 -0.07637527623744668
-0.3020277673722385 -0.17048748332417066 -0.18161108656352612 -0.15515860032569428 -0.1497436283737737 0.19465656023302638 0.7278239657361906 0.12210827935369044
-0.4749760174104056 0.3700527523001187 -0.39347632597482113 0.019566558917630393 0.06309883923801911 0.1017334858767512 -0.355658684796513 0.3551272361503135
0.352033857940229 0.03096890373372499 -0.12479735189405784 -0.8095402002181489 0.12287818108400028 0.1880887405729347 0.20511333114658023 0.6735285581424642
-0.2192169585643479 0.21362799863119802 0.2285422645194187 -0.0550284981504384 0.12499849285941893 0.27666841321776714 -0.2513301483705838 0.27529092102085917
-0.09958913024454073 0.030601950091331 0.16510645119988004 -0.22844586568377406 0.10008166929368435 0.2986544841818088 -0.3794430744406671 -0.2180364850363481
-0.6401182551074279 0.21218986264677384 0.12353379825999831 0.1088875027757729 0.20256105723738738 -0.17120696680941952 0.31588429152764375 -0.058882463944212766
0.2200840404030168 0.19761805763665213 -0.1340527772334364 -0.08366042922204513 0.5049234238559852 -0.19055039538445784 -0.22871002282392672 -0.31314110865243183
0.3270026807210895 -0.16778858226822016 0.25980836730941204 -0.23051993401799173 -0.1996380164141242 -0.09913383746866065 -0.07004332866572144 0.3967821556699401
-0.1692883142880422 0.0178693570114813 -0.5405712816870523 -0.6236014126549434 0.6114727900791566 0.4013586922580498 -0.3721561725997073 0.18384384931511769
0.05640911211084993 0.29425993067961825 0.41049283853153945 0.14903256862463693 -0.02811006399505898 -0.6256543781151575 0.000808404378973072 0.24971727791632534
-0.5742808033434004 0.4214268056123252 0.15929756924917346 0.2859240331754261 -0.1721083395721766 0.024233074195604703 -0.1303479126029145 0.08307986982404149
0.07126478120322968 0.5121230334546784 -0.3430349068054032 -0.38510255044662484 -0.08337724484380336 -0.36069343487541305 0.4245319212319908 -0.727963035694395
-0.0016105660321697093 0.0006879300325764735 0.026441118515118142 -0.1754132572326498 -0.3929560700476806 0.6948110386768012 0.0878690854932165 -0.024466011780171493
0.14592596565927735 0.23141353249577654 -0.23364354949180224 -0.11021096605646459 0.49284056236464757 0.058850079596948636 -0.12728973791579823 -0.10352667196681065
-0.26969065395721464 -0.5692051480950352 0.19614206838098674 -0.1604989370437307 0.36575370399028867 0.37945416465105036 0.16377302814748343 -0.19879144498180143
-0.06065987754896284 0.03811207766779879 0.011197328982131185 0.9062103232989166 -0.6233194434087492 0.1966047246827633 0.4923091170395617 -0.49707001444440146
0.23389697673761203 -0.28677903269127614 0.47144150116447503 -0.04687444736153458 -0.15268742819279568 -0.3148665872692925 -0.24368674723606462 0.17305638826646716

bias f8 [32]
00000000: 22c0 6312 2463 e53f 9168 92fa 4b31 e1bf
00000010: 9587 852d f154 d93f 42d0 9fa6 8f9b 933f
00000020: e819 e872 7b71 d93f a6f3 8ace 475b d2bf
00000030: 3145 5c27 41ce d7bf ffbf 6d2a 55b4 e7bf
00000040: a2cb 0500 734c d33f 272f 29e0 8d85 da3f
00000050: 03b7 c7cb fc13 c33f 298d 48df a0f4 cd3f
00000060: 8058 1c39 9bb9 843f cd65 0601 a7b5 ddbf
00000070: f79a 4ccf b774 e7bf 97cf 7993 293b d73f
00000080: 2b8f a7a7 191a dbbf c661 5a01 9ce5 c53f
00000090: 904a 1fcd b851 bebf f84d 6d01 0edb e23f
000000a0: cd72 afec 7a48 c93f e05d 34d5 b72a c73f
000000b0: bed6 f3df 6488 b4bf da2b d1b3 753f dc3f
000000c0: 7a3e cf43 cbb8 83bf 4790 95e1 6e2a d3bf
000000d0: 3ab9 7c36 b71c d83f 76fd f5c6 2c8e a3bf
000000e0: 41b0 e97d 7d0f d5bf 745e db2c 27e0 de3f
000000f0: f01a 3647 3ce6 d43f 19d1 6f3a dfe9 e03f
0.6683521613285885 -0.5372676748259143 0.39580945439785725 0.01914810614103169 0.39755140515663223 -0.2868213192958201 -0.37196377605239933 -0.7407632664380798
0.30154109003268037 0.41440150156698724 0.1490474696178624 0.23402796652326543 0.010119640999203705 -0.4642121801385571 -0.7329978035748742 0.3629859867280571
-0.4234680306674245 0.17106962266985998 -0.11843447692744236 0.5892400768156554 0.19752441937352785 0.18099115286234646 -0.0802062079199812 0.4413732772852065
-0.009629810339816237 -0.2994649126978896 0.3767526657201362 -0.03819408348771962 -0.3290704469316133 0.48243121510083786 0.32655245737298255 0.5285488263457722

weight f8 [84, 32]
00000000: fa10 9081 2b32 983f d556 4e18 7323 c13f
00000010: fbeb e777 ac18 bd3f 2592 84be d733 cabf
00000020: c499 279f a045 acbf d92f d753 bc7d debf
00000030: a447 65bf 1817 cebf 5af4 781a d7b1 babf
00000040: c98e ab26 2b76 c33f df42 b7c6 c933 c43f
00000050: 4057 e801 2e1c c03f 6055 6b41 a0ec ca3f
00000060: 69d5 3bec b856 ba3f 6de0 6be7 a492 c2bf
00000070: 0163 ce61 02df d0bf 36b8 f709 49a2 b73f
00000080: c143 9337 a53f d3bf 6d03 a254 dbf6 cf3f
00000090: 7fa0 5dfb 44cd 9ebf d850 303e 54a8 df3f
000000a0: 3116 5323 a100 d13f a27d 428a 905e 833f
000000b0: bfd2 5b1e 5bab cbbf ee84 b270 4e12 babf
000000c0: b40a 0997 63fd b5bf b789 1429 a523 ca3f
000000d0: 32f7 0bec d2c4 d1bf 601a fb93 b0ac bcbf
000000e0: 1fcc eef5 6610 9b3f e1bb 0fdb d4aa ab3f
000000f0: af00 1ce1 e997 bf3f e48e 1928 18f3 a0bf
00000100: 8a2e 7618 3d1f b03f e947 123e fbab 6cbf
00000110: 4d9b 0a4b 82d7 7dbf 4cbf e333 ea8a 963f
00000120: 1fa3 96e7 f90f bebf a92b a6ee c6c3 d83f
00000130: dde4 8f26 e779 673f d764 4f22 bb66 953f
00000140: 564f 9d3d abb7 953f cb22 547b 053b 9d3f
00000150: a7c6 3d52 fda0 8fbf d468 c3da eb81 a23f
00000160: 0d52 7df3 5b7e e4bf 6622 4d79 5f01 98bf
00000170: 060a 6ead 8d92 363f 1bfc 6d7d 603c 633f
00000180: 793c c9c9 953b 92bf 46f1 49e7 bc5f 86bf
00000190: 1ef7 83a8 5c5a b2bf a5b3 c3ee 3f42 95bf
000001a0: 9369 a02d cb8f a63f beff c589 2026 993f
000001b0: ed5f bc59 3cfa 7e3f a469 3809 1414 773f
000001c0: f579 aeb1 4cfd aabf 2169 4f80 a142 983f
000001d0: 280b e0a8 da1e 2fbf d8ea f627 9579 a93f
000001e0: 6463 7179 1942 8f3f fdfa 74e6 bbc1 823f
000001f0: 9ccf c784 0c3a 863f bc54 9d73 5a1c 953f
00000200: b127 a8a2 759f c63f 4f8a f670 80ca 953f
00000210: 349d 758f 885a cc3f edd3 3c17 260f b73f
00000220: 175e 7fd2 0050 ba3f 9fe4 79c2 1e51 9dbf
00000230: 7fcf 8de2 af01 b0bf 1937 5222 fb4f bc3f
00000240: 9c43 ea1a 12c4 d3bf f7d1 1f50 5b47 a8bf
00000250: 5f36 b569 5ef0 aa3f 9dea 386c 1b76 bbbf
00000260: e8c7 4c55 4bdb e33f 3b78 16a5 1397 c33f
00000270: a88d 8ae2 0c30 ce3f 8a05 1774 db6d a9bf
00000280: cb5b ba66 4a30 c5bf 9891 9837 d765 c4bf
00000290: 3c58 69d7 cd68 d43f d8e4 7b57 2a0c a13f
000002a0: 6e48 82a8 d833 873f 8dd6 a25a 0e4f cebf
000002b0: c444 beac e8cb c43f 5561 eb56 c084 b8bf
000002c0: e5c6 2e6f 0bbf c03f 22c0 8a46 a08e c2bf
000002d0: 01ac 98a0 cc95 d33f fd64 90bb dc92 70bf
000002e0: fab5 06a9 438b d03f 5c4b 1545 2642 bdbf
000002f0: 7bb4 9ca0 35d2 c0bf ec14 802d 9372 c6bf
00000300: ca9b 5adb f84e c4bf 3564 e821 b6c9 9c3f
00000310: ccdf 5b61 9112 803f 77bc dd9e 5831 dfbf
00000320: eebf c5a9 6943 b5bf 4875 9136 d760 adbf
00000330: e0c7 12c6 e6c5 923f eeba daa0 985f f03f
00000340: fbd3 6026 f151 713f 45f4 2ee9 16d0 91bf
00000350: c85d bdca 0375 8a3f 2840 3fee 8fd4 7f3f
00000360: 2403 3019 1654 94bf a722 3ca2 597e a43f
00000370: 88f3 e453 a752 8c3f 62b4 583d 3fd0 3ebf
00000380: 0b8c 8baf 7582 6abf fddf 1ad3 64e3 7c3f
00000390: d613 2e94 c851 88bf 4d51 cc81 6709 a03f
000003a0: e33b bd8c 475f a4bf 38d0 41e7 e149 72bf
000003b0: 2b84 a31c 2561 a6bf c260 b079 e72d 85bf
000003c0: b04e 7165 4aa2 66bf 1316 3d12 9678 743f
000003d0: 8d21 d521 19ae 8cbf 4d7c 6888 9722 6ebf
000003e0: 0a22 e14d 4218 703f 66bc ecdf 385b a2bf
000003f0: 1e21 eff6 386d 7bbf 6798 a26d 60fd a43f
00000400: 7c75 6e17 e475 973f 691e c168 ec4d d03f
00000410: b935 b3d1 52ab 733f f8b4 e117 edab b63f
00000420: 5a01 7c49 c1fc 7abf b7f9 6598 6793 c83f
00000430: 0dd0 d5b1 2018 d83f a72d eab5 91e6 a7bf
00000440: 99cf ab38 9e20 80bf f331 4692 c550 ccbf
00000450: bea7 8409 c1cf b6bf 9bb3 639f 8c22 cabf
00000460: 927f 6d76 44de b43f b991 ee2f ff00 c13f
00000470: 9ffe 7289 1282 c63f 299f 5386 a350 d7bf
00000480: 29fa ea85 1cd2 893f 69e5 6803 f7c4 d13f
00000490: 7072 2642 b672 95bf f12a a800 5cb5 d7bf
000004a0: 104c beae a161 883f 39ec 7e8c f41a e63f
000004b0: 0322 4fcf 8fa4 b33f 8cab 5cc5 59a5 a7bf
000004c0: 881e a89e 112b b63f 7ccf a7ac 95f7 c6bf
000004d0: ef73 bfc0 6557 73bf daf8 3caf 6db3 c5bf
000004e0: ccdb b154 7898 e33f bbbd 65e5 ae61 a6bf
000004f0: 362c b918 0519 c63f a2ba fb74 8e02 dabf
00000500: f73d 3aa9 e211 c4bf 736f a7b9 813c bdbf
00000510: 9499 714c 2e86 a53f 9824 54e2 306e acbf
00000520: d658 13da 224f c6bf 15be 6b0d 5f59 99bf
00000530: a886 4e40 c0b6 a7bf 8620 67e3 9148 b0bf
00000540: ca98 0621 8405 cabf d93e 588c 28f0 bf3f
00000550: 1001 1029 f42c e7bf ad59 877d 77f5 bd3f
00000560: 35ee 25a2 6292 8fbf 4efe 801c e379 c33f
00000570: 39e0 2d52 acd6 a33f a293 d9b8 64cf a6bf
00000580: c9b0 c1ae 59a2 83bf d2b2 7c69 c356 aebf
00000590: 35ea 0a8e 469a bcbf 99aa 035f fdde c5bf
000005a0: 6a41 bf89 eef3 b43f 05e1 f463 9416 a33f
000005b0: f1f6 6eac acd9 acbf 4491 c1e7 cd91 893f
000005c0: 531b 61ba 4665 a13f 6641 4214 1203 b1bf
000005d0: 91c6 daab 2491 f3bf 77c6 6bdc 3351 b6bf
000005e0: 6817 c268 950a 823f f0f6 c897 0988 b8bf
000005f0: a936 cb5b 5bae 853f 98e0 67ca 2f3d a43f
00000600: a68b 55d7 95d3 aa3f 645f a9df 20eb f03f
00000610: 3a5b 89b6 b2b4 bc3f 2f5a f82e 30f5 b53f
00000620: f327 fca3 e7fd b9bf 7aad 85da 26d6 c23f
00000630: cf8c d416 9ac2 d13f 6cca d74b c002 c03f
00000640: b5cc e991 1fc7 afbf 3ad5 d8a7 d3e8 c1bf
00000650: 2304 5c33 74ac d13f 829e 0b0e 44c5 b2bf
00000660: 084a 2977 be4c b0bf 9895 29b1 7d29 cdbf
00000670: 5629 b875 d54f d33f af29 9a8a d1a7 e1bf
00000680: 2aa8 ab4f b114 ca3f c6dc 53cb 1d55 cf3f
00000690: 79fa 21d5 ad36 d13f 1e5a 1538 2fd7 d33f
000006a0: b661 f9a6 6450 cbbf 29af 04d9 4383 d8bf
000006b0: 051e 74f1 3d80 dc3f f40c 9309 3b61 a9bf
000006c0: b3d0 b40f 3a63 a8bf 0dc9 3f15 3c92 bf3f
000006d0: e49a 56e5 1e19 c33f 4689 1010 564d cd3f
000006e0: 65ac 8811 3802 ca3f b33c ff18 b944 ca3f
000006f0: 48c1 83da 98b9 3d3f 3ffd 0c3a e1e1 c33f
00000700: 9537 ada4 4a9d 943f db95 dbaf 82a9 d4bf
00000710: 4b63 44ad b961 c93f 16b5 9ecd d0f4 c5bf
00000720: 0de4 23a7 76d1 783f 5b76 913e ac3b b33f
00000730: cb0c 5b77 d711 b03f d54d 019a fcaa d1bf
00000740: 813c c508 8e6c d53f a340 7622 6803 afbf
00000750: 2e97 c174 330b d33f f519 7648 d9f3 b83f
00000760: 229e 4e02 1078 bf3f ec33 869d de15 d6bf
00000770: 7e95 008a bf56 ca3f be89 25d0 011b a7bf
00000780: 1f89 9be0 3885 bdbf 8d44 03d7 7ee7 80bf
00000790: 322c 32d4 1923 c03f dd4b ef1b 176a c2bf
000007a0: b997 5d12 af4f a4bf 911d c73f ed1b af3f
000007b0: 9192 fd81 8ae3 d83f accf f518 0cc7 bfbf
000007c0: 789a d91c 071c d13f 786d 3db5 392e b43f
000007d0: 1147 14b2 8799 b5bf cb06 9b09 a025 e1bf
000007e0: 093f 01fe ae5f a43f fbc1 0159 be89 b83f
000007f0: 988f fb9e 1355 933f 1741 5096 c023 d13f
0.02362888315475773 0.1338943356210424 0.11365774085417961 -0.20470711519841803 -0.05521871512228274 -0.4764242953067402 -0.23507985444535706 -0.10427612682629342
0.15204371822539134 0.1578304500858598 0.1258599767031061 0.2103462523870503 0.10288577811646395 -0.1451002244937202 -0.2636114077700285 0.09232002728796904
-0.3007596056677891 0.24972097046341038 -0.030079915849825497 0.494648991328416 0.26566341828979306 0.009457711428978059 -0.21616686804158822 -0.10184183360481189
-0.08589765965829593 0.20421280389662197 -0.27763817836226956 -0.11201003659071196 0.026429756889864927 0.05403771566476912 0.12341176744303327 -0.033104662795066436
0.06297666403968996 -0.003499975879614138 -0.007285603482762704 0.022014293114750047 -0.11743127731336898 0.3869492846067098 0.002865745035248153 0.020899700135349555
0.02120845378460897 0.028545461323150428 -0.015443781921678236 0.03614747090769446 -0.6404247050909945 -0.023442737368244336 0.00034442862436648324 0.002348125893547171
-0.01780542415718542 -0.01092479306066053 -0.07169131387851421 -0.020760535190607183 0.04406580860105005 0.024559505852721257 0.007562862152347788 0.00563438250130802
-0.052713772477762356 0.02369167657511995 -0.00023743075547607542 0.04975572693679958 0.015262793558734784 0.009158580751884577 0.010852906992091786 0.020615971857598878
0.17674131815175323 0.02128029527160385 0.22151286129813175 0.09007490222286636 0.10278325213527527 -0.02862976133335293 -0.06252574235059959 0.11059541309279232
-0.3088422072260586 -0.04741940835075192 0.05261511841181909 -0.10727092163225867 0.6205193201078574 0.15304799614836093 0.2358413797529526 -0.049666269227155516
-0.16553621307386232 -0.15935793127677012 0.318896732676311 0.033295939616388714 0.011329357759937344 -0.23678759980764533 0.1624728053543888 -0.09577562448555928
0.1308302204975497 -0.14497760242875396 0.30601802523841576 -0.004046308743476998 0.25850001818147883 -0.114290611139308 -0.1314150842894469 -0.1753715488595512
-0.1586600371421965 0.02811321813542041 0.007847915443093621 -0.4873868514468493 -0.08305988688312002 -0.05737946072688743 0.01833305915778982 1.0233389171004847
0.004228536598067652 -0.0173953609298574 0.012918500542283065 0.00777107451354201 -0.019852013861967013 0.04002647500425854 0.013829524276496988 -0.00047017616211315037
-0.0032360361623076143 0.007052797170835842 -0.011874739667982508 0.03132174930047658 -0.03978942482955696 -0.004464991030648284 -0.0437099072894472 -0.01034146156420979
-0.0027629330684620576 0.004997812476920343 -0.0140039409112809 -0.0036786040902963336 0.0039293851860482485 -0.035852219900669266 -0.006695959585109072 0.04099561060256534
0.022910655908721975 0.2547560713760278 0.004802058708447126 0.08856088479088331 -0.006588702228100674 0.19199843350720666 0.376472638766473 -0.04668097825659894
-0.00787471399733146 -0.22121495859427362 -0.08910757524850418 -0.20417936117828792 0.08151653186132382 0.13284292068887085 0.17584449492823226 -0.3642967998298326
0.012607786976670603 0.2776467831896157 -0.02094540385006599 -0.370444298402318 0.011904967446559694 0.690790438085407 0.07672976313836703 -0.04618340048030864
0.08659467814879396 -0.17943068438000498 -0.004722020599698048 -0.16953822189856887 0.6123620657152684 -0.04371401357900192 0.17263854701227083 -0.40640603469993597
-0.1567958189302627 -0.11420450956887666 0.04203934367324105 -0.05552819025803862 -0.17429004333707238 -0.024754986948151442 -0.046316154336876025 -0.06360732843234204
-0.20329333889566775 0.12475827623733994 -0.7242375185014982 0.1170267754999716 -0.015415926526421856 0.15215720073500666 0.038747200996056504 -0.04455103641956916
-0.009587002416275319 -0.05925570166286821 -0.1117290589126377 -0.17086760653849778 0.08184710371938811 0.03728164405987581 -0.05634822468662815 0.012485130915771088
0.03397580170763228 -0.06645310396766532 -1.2229353631086364 -0.08717655307170867 0.008809249171701075 -0.09582576709450641 0.010586465586494969 0.039529317338691417
0.0523955178603253 1.0574043976575576 0.11213223415812204 0.08577252527934641 -0.10153053048648512 0.14716039342907178 0.2775025580360308 0.1250839586569613
-0.0620660653702542 -0.13991780944494697 0.2761507512623799 -0.07332253783135381 -0.06367102059565621 -0.2278287043620082 0.3017476701358154 -0.5517356593202772
0.20375648870623425 0.2447850458918081 0.2689623433470057 0.31000881649871015 -0.2133909049323514 -0.3830117816275896 0.4453272684044978 -0.04956993572116089
-0.04763204042174731 0.12332511442926748 0.14920412252577997 0.22892261299518618 0.20319271904131422 0.20522226067121138 0.00045356733109171545 0.15533080420025588
0.020131269742072872 -0.3228460996018307 0.1982948394804914 -0.17153368034397748 0.006059134948594125 0.07512928512138599 0.06277224220234527 -0.2760612014728541
0.33475066048135466 -0.06057286663701802 0.29755865480398114 0.0974708368213227 0.12292575889898008 -0.3450848139116818 0.20577234495537405 -0.04512792268612341
-0.11531405910094293 -0.008254042565029951 0.12607119427807018 -0.14386261810304193 -0.03967043971242341 0.06075993922746215 0.3888880032957696 -0.12413097009067425
0.26733568017372233 0.07883034395984179 -0.08437393281590412 -0.5358429133995853 0.03979250765462267 0.09585179970759576 0.018879229143649562 0.267807146826287
